train/thyroid/thyroid_data.pt (torch, 5719 bytes, 6 tensors)

weight f4 [32, 4]
0.04140082 -1.817607 -0.08459985 0.69783485 -0.5070664 0.73754 0.07962123 0.15278459
-0.670918 -0.04928317 -0.5866203 0.40325588 -0.10652724 -3.0346262 -0.08612783 0.09835641
0.57876366 -0.17437789 -0.49175104 -0.335447 0.010185123 0.25098687 0.6288198 -0.48755884
0.6410192 0.23641077 0.01964975 2.4127655 -0.015338114 -2.3659885 -0.16369137 0.22223105
0.14849578 0.3258244 -0.31233796 0.18888533 0.40057895 -0.2998774 0.16524366 -0.2979636
-0.031254005 -1.0458922 0.007712916 0.08435192 -0.710234 -1.4589536 -0.55233115 0.7642791
0.12639712 0.6891943 -0.17630923 -0.10418161 0.051730435 -0.4203493 -1.1748817 0.33594626
-0.023189103 0.61824435 -0.021350559 0.42561412 -0.08780432 -2.3219755 0.075556904 -0.40883932
0.38172194 -0.92663306 0.06826705 0.7538401 0.2765623 0.22154497 -0.67142165 -0.56078315
0.20300192 -1.5309135 0.9543701 0.795374 0.13502337 0.4517035 -0.07715136 -0.7938664
-0.5338871 -0.35214117 -0.49459752 -0.18582454 0.6637949 -1.2615885 -0.5177894 -0.6361242
0.8664857 -0.023875099 0.20437922 0.29543176 -0.11523036 0.4295233 -0.4789476 -0.35637283
0.021347215 0.73056895 -0.010116099 -0.06598186 0.2973165 -1.22292 0.12947789 0.12915814
0.46272203 0.13957275 0.3433489 -0.2952682 -0.37682736 -2.2743597 -0.18026933 0.51223314
0.053342205 -0.419048 0.04682379 0.8539846 1.3712455 0.06508535 -0.09629353 1.0873939
0.17196113 -2.8650296 0.1638398 -0.17988424 -0.062052544 -0.88548857 1.2443484 -0.74436015
00000000: e893 293d 59a7 e8bf b042 adbd 4ea5 323f
00000010: 1bcf 01bf 6ccf 3c3f 7510 a33d 9073 1c3e
00000020: 48c1 2bbf 26dd 49bd bf2c 16bf 8e77 ce3e
00000030: f42a dabd 5137 42c0 ca63 b0bd 166f c93d
00000040: db29 143f 1e90 32be cbc6 fbbe b6bf abbe
00000050: 81df 263c 5a81 803e 56fa 203f 50a1 f9be
00000060: d619 243f aa15 723e 83f8 a03c c06a 1a40
00000070: b74c 7bbc 5b6c 17c0 b69e 27be 8990 633e
00000080: 470f 183e 75d2 a63e c3ea 9fbe 286b 413e
00000090: af18 cd3e 8889 99be a235 293e af8e 98be
000000a0: 3304 00bd ccdf 85bf a1bc fc3b b3c0 ac3d
000000b0: e5d1 35bf febe babf 9365 0dbf cca7 433f
000000c0: 3f6e 013e 0a6f 303f 688a 34be 2b5d d5bd
000000d0: 4be3 533d 0638 d7be 8662 96bf 2601 ac3e
000000e0: 13f7 bdbc 4345 1e3f 5ee7 aebc 18ea d93e
000000f0: c0d2 b3bd 3f9b 14c0 94bd 9a3d 6353 d1be
00000100: 0f71 c33e d337 6dbf 98cf 8b3d aafb 403f
00000110: 9399 8d3e afdc 623e 4ae2 2bbf 7c8f 0fbf
00000120: bcdf 4f3e f9f4 c3bf 9951 743f a19d 4b3f
00000130: 9143 0a3e ae45 e73e 8801 9ebd d43a 4bbf
00000140: d3ac 08bf d94b b4be e33b fdbe ca48 3ebe
00000150: 76ee 293f bb7b a1bf d98d 04bf 09d9 22bf
00000160: 02d2 5d3f b695 c3bc c948 513e d542 973e
00000170: e5fd ebbd 7aea db3e 9f38 f5be 8076 b6be
00000180: 5be0 ae3c 9106 3b3f ffbd 25bc 7f21 87bd
00000190: de39 983e a488 9cbf da95 043e 0842 043e
000001a0: e7e9 ec3e 29ec 0e3e 6dcb af3e 652d 97be
000001b0: 84ef c0be 1c8f 11c0 8698 38be b621 033f
000001c0: 5b7d 5a3d 768d d6be 4dca 3f3d bc9e 5a3f
000001d0: f984 af3f 784b 853d 8b35 c5bd b92f 8b3f
000001e0: 9416 303e a55c 37c0 9fc5 273e 9333 38be
000001f0: cf2a 7ebd 61af 62bf cf46 9f3f 638e 3ebf

bias f4 [32]
0.5849847 0.12777114 -0.50696754 0.3313716 0.38438597 0.31580344 -0.02044072 0.5305903
0.32604703 -0.4990399 0.66274667 0.022640988 0.24743894 -0.75042224 -0.681121 0.49446952
-0.5237909 -0.60845286 -0.5501751 -0.16093977 0.4437446 0.21805559 1.0567611 -0.44670656
0.3245631 0.8999772 0.3766485 0.41378868 -0.6987439 -0.17489742 0.37588134 -0.8958622
00000000: 8fc1 153f 70d6 023e a0c8 01bf 8aa9 a93e
00000010: 3dce c43e fdb0 a13e 4c73 a7bc c4d4 073f
00000020: a3ef a63e 2882 ffbe c4a9 293f 9879 b93c
00000030: a260 7d3e ac1b 40bf f25d 2ebf 1c2b fd3e
00000040: 2917 06bf 91c3 1bbf 46d8 0cbf 65cd 24be
00000050: 7e32 e33e f749 5f3e f343 873f b9b6 e4be
00000060: 222d a63e e864 663f 12d8 c03e 1cdc d33e
00000070: e1e0 32bf 4f18 33be 8573 c03e 3a57 65bf

weight f4 [16, 32]
-0.3219596 0.014658823 -0.6252351 -0.49392673 0.13935351 0.30165905 -0.2159993 -0.82026845
0.21003814 -0.061050974 0.44247827 0.6106657 0.25958472 1.6006906 -0.13519065 0.40459332
-0.32815474 0.07554654 1.3275994 0.10305646 0.0742825 -0.7870522 0.20478432 0.14996171
0.20959479 0.79106075 0.10183875 0.007249668 -0.6511715 -0.13163511 -0.23376532 -1.8442084
-0.37899232 -0.0038123622 -0.8340368 -0.71699 0.25675604 0.42974755 -0.097651765 -0.9112319
-0.032493733 0.034072936 0.4367583 0.5132302 0.13832234 1.448466 -0.23533575 0.25552505
-0.3523221 -0.28424186 1.5814791 -0.08317343 0.031781763 -0.764018 0.084113955 -0.14560924
0.046549026 0.69514096 0.18380406 0.057351552 -0.6788855 -0.12842292 -0.18228847 -1.6277213
-0.06838359 -0.1436475 -0.096029386 0.081795245 0.012302454 -0.12478221 0.08499002 -0.0726776
-0.15462841 -0.16943653 0.119435616 0.09082497 -0.1112384 -0.16078351 -0.060501378 0.11246035
-0.0026941511 -0.10593686 -0.015473511 -0.097052015 0.12543644 -0.018074445 -0.044809647 -0.07441074
0.025830692 0.011560457 -0.044628218 -0.0735426 -0.1145007 0.04977204 -0.16566317 -0.16176341
-0.12951021 0.07527295 -0.7178024 -1.0633774 0.22171839 0.52779907 -0.068708695 -1.2300615
-0.15165776 0.056601766 0.24533 0.77628255 0.11469997 1.5539594 -0.40647328 -0.2605095
-0.4489006 -0.17138405 1.5167139 0.113058366 0.04145563 -1.3065857 0.23778008 -0.03027398
0.13254197 0.59341896 -0.036991447 0.35125333 -0.82651746 -0.07122972 -0.84706783 -1.3657694
0.7716688 -0.5599373 1.211909 1.9430623 0.036742087 0.016695915 -0.3884346 0.7478713
-0.38682374 -0.051435433 0.19600293 0.4078721 -0.6085399 0.36446977 1.5658273 0.6876862
1.1142128 -0.47493294 0.5875853 -0.11992868 0.10972885 0.30924165 -0.19912547 -0.45819125
-0.55184174 0.17104356 -0.19031121 0.72214407 1.2990903 -0.51785547 2.1225379 -0.49746817
-0.41211754 -0.12161555 0.31055048 -1.1078638 0.13231547 0.071086526 -0.08687922 -1.1171062
-0.21915194 -0.14894591 0.6312803 0.7027094 -0.081418194 2.3387015 -1.7088417 0.42887643
-0.5698062 0.6122504 1.9777657 0.0744656 0.39710912 -0.7725322 0.6034424 0.087275095
-0.089209005 1.0068072 -0.49366215 0.35473442 -0.8498847 0.13023213 -0.5900052 -1.4159161
-0.11274602 -0.038946018 -0.1899483 -0.090253174 -0.015748354 -0.05788693 -0.072315685 0.058900326
-0.18482512 0.13362296 0.14637345 -0.123493 0.024417683 -0.0021914465 0.06493619 -0.027809469
-0.14091836 -0.12263132 0.10109505 0.08446365 -0.093677595 -0.03558532 -0.09404756 0.12326475
-0.0084874 0.05206459 -0.101701766 -0.16531345 0.17604907 -0.07587565 -0.09242538 0.13875353
0.5790958 -0.6189367 1.0010043 1.919155 -0.07253122 0.033171844 -0.2934621 0.8494975
-0.5358605 -0.07511078 0.012167479 0.25218442 -0.8850517 0.61267495 1.3444247 0.7901469
1.0400653 -0.33428657 0.59960514 -0.21246137 0.19042039 0.3497556 -0.19404393 -0.39253685
-0.6994455 -0.01336425 -0.0874848 0.785825 1.2785697 -0.27444494 2.3388574 -0.4946269
00000000: e4d7 a4be 8f2b 703c 680f 20bf f7e3 fcbe
00000010: b0b2 0e3e 0e73 9a3e ec2e 5dbe 1dfd 51bf
00000020: 3d14 573e 9610 7abd 838c e23e 9654 1c3f
00000030: 4ae8 843e 6ee3 cc3f 6b6f 0abe db26 cf3e
00000040: e603 a8be 25b8 9a3d c7ee a93f 440f d33d
00000050: 6c21 983d 417c 49bf fbb2 513e 908f 193e
00000060: 04a0 563e f582 4a3f d690 d03d 9f8e ed3b
00000070: 2db3 26bf 5bcb 06be 2d60 6fbe 050f ecbf
00000080: 480b c2be d3d8 79bb 7083 55bf a88c 37bf
00000090: 8775 833e df07 dc3e a6fd c7bd 7e46 69bf
000000a0: 2618 05bd 1090 0b3d c99e df3e 0e63 033f
000000b0: 5fa4 0d3e 5567 b93f dbfb 70be 2ed4 823e
000000c0: 9063 b4be 2688 91be e86d ca3f d556 aabd
000000d0: 982d 023d af96 43bf f043 ac3d 971a 15be
000000e0: 31aa 3e3d c2f4 313f 2237 3c3e 76e9 6a3d
000000f0: 71cb 2dbf 4c81 03be d4a9 3abe 2c59 d0bf
00000100: b20c 8cbd 5518 13be 0eab c4bd 4484 a73d
00000110: 3b90 493c d18d ffbd 3f0f ae3d fed7 94bd
00000120: e956 1ebe c580 2dbe a99a f43d 7102 ba3d
00000130: f5d0 e3bd 6fa4 24be 4bd0 77bd 9d51 e63d
00000140: 5b90 30bb 6df5 d8bd 9c84 7dbc 35c3 c6bd
00000150: 6972 003e dc10 94bc 528a 37bd a864 98bd
00000160: e39a d33c 1268 3d3c 14cc 36bd 819d 96bd
00000170: 587f eabd c4dd 4b3d 9ba3 29be 4fa5 25be
00000180: 539e 04be b428 9a3d e6c1 37bf c01c 88bf
00000190: 250a 633e d71d 073f 25b7 8cbd a872 9dbf
000001a0: 2c4c 1bbe 41d7 673d ca37 7b3e 74ba 463f
000001b0: d1e7 ea3d 24e8 c63f 441d d0be 8061 85be
000001c0: 4dd6 e5be 4d7f 2fbe ae23 c23f 258b e73d
000001d0: 61cd 293d 333e a7bf 9f7c 733e 2301 f8bc
000001e0: 15b9 073e 4eea 173f 5884 17bd 7ad7 b33e
000001f0: a696 53bf e3e0 91bd 70d9 58bf 88d1 aebf
00000200: 168c 453f 0d58 0fbf d61f 9b3f 44b6 f83f
00000210: df7e 163d dfc5 883c e6e0 c6be 7e74 3f3f
00000220: c30d c6be f6ad 52bd feb4 483e 9dd4 d03e
00000230: 45c9 1bbf c89b ba3e 076d c83f 340c 303f
00000240: 869e 8e3f 692a f3be fd6b 163f 2b9d f5bd
00000250: 85b9 e03d ec54 9e3e 8ce7 4bbe 0b98 eabe
00000260: 8045 0dbf 0b26 2f3e f1e0 42be 6fde 383f
00000270: 9748 a63f 2d92 04bf a9d7 0740 26b4 febe
00000280: 1201 d3be 9311 f9bd 7900 9f3e 7bce 8dbf
00000290: b57d 073e d095 913d bced b1bd 56fd 8ebf
000002a0: 5e69 60be 4785 18be 969b 213f c3e4 333f
000002b0: 95be a6bd 49ad 1540 53bb dabf b195 db3e
000002c0: d2de 11bf 71bc 1c3f 6d27 fd3f 6c81 983d
000002d0: e351 cb3e acc4 45bf 337b 1a3f 49bd b23d
000002e0: 36b3 b6bd 0fdf 803f 49c1 fcbe c09f b53e
000002f0: 0b92 59bf 925b 053e 950a 17bf bd3c b5bf
00000300: 63e7 e6bd dc85 1fbd cf81 42be a8d6 b8bd
00000310: b102 81bc d81a 6dbd 3f1a 94bd 7841 713d
00000320: cc42 3dbe 75d4 083e ece2 153e e6e9 fcbd
00000330: 9807 c83c 5f9e 0fbb 44fd 843d afd0 e3bc
00000340: e74c 10be 2126 fbbd ec0a cf3d 47fb ac3d
00000350: 0ada bfbd eac1 11bd 029c c0bd 3b72 fc3d
00000360: bc0e 0bbc ae41 553d 0449 d0bd ee47 29be
00000370: 3546 343e b164 9bbd 8549 bdbd 6815 0e3e
00000380: 9f3f 143f a372 1ebf e920 803f dfa6 f53f
00000390: 408b 94bd 33df 073d aa40 96be ab78 593f
000003a0: 272e 09bf aed3 99bd 1b5a 473c 511e 813e
000003b0: c092 62bf 44d8 1c3f 1c16 ac3f 1147 4a3f
000003c0: dc20 853f 9c27 abbe b97f 193f 798f 59be
000003d0: 90fd 423e 2a13 b33e 74b3 46be 97fa c8be
000003e0: dc0e 33bf baf5 5abc 3b2b b3bd d42b 493f
000003f0: 2ca8 a33f 0c84 8cbe d7af 1540 bd3f fdbe

bias f4 [16]
0.09715996 0.14219834 -0.167665 0.036981143 -0.18682599 0.34566307 -0.20254667 -0.16294444
-0.17305996 0.06980966 0.20892084 -0.08511134 0.13613456 0.13824289 0.0016816001 0.20047776
00000000: cdfb c63d 719c 113e 60b0 2bbe 8a79 173d
00000010: 504f 3fbe c0fa b03e 6568 4fbe e8da 26be
00000020: a136 31be 5ef8 8e3d 58ef 553e db4e aebd
00000030: dc66 0b3e 8b8f 0d3e 2369 dc3a 0b4a 4d3e

weight f4 [2, 16]
0.36917314 0.35276762 -0.1025513 0.4395653 -2.1250317 0.89895153 -0.068862416 -1.677358
-1.8940419 0.23860174 -1.0082258 0.02576078 -2.733114 0.25630504 -1.543929 -2.584565
-0.42323232 -0.23922293 -0.16219752 -0.71621215 1.8552623 -1.0404428 -0.062241673 2.0019755
1.8858994 -0.32595724 0.63682 -0.14361128 2.9289753 -0.50722146 1.6918992 2.7066865
00000000: 4304 bd3e f59d b43e 6a06 d2bd b40e e13e
00000010: 8500 08c0 b021 663f bd07 8dbd abb3 d6bf
00000020: f76f f2bf 0454 743e 8b0d 81bf 4508 d33c
00000030: 57eb 2ec0 6a3a 833e 779f c5bf 8369 25c0
00000040: e8b1 d8be dbf6 74be 1b17 26be ae59 37bf
00000050: 3c79 ed3f 3b2d 85bf 20f1 7ebd 5e20 0040
00000060: 2765 f13f dee3 a6be a306 233f d60e 13be
00000070: 5574 3b40 44d9 01bf 2790 d83f 5a3a 2d40

bias f4 [2]
-0.01824956 -0.035717785
00000000: 1a80 95bc d04c 12bd
