train/thyroid/thyroid_data_new.pt (torch, 4759 bytes, 6 tensors)

weight f4 [20, 4]
-0.3939154 0.16795222 0.61327165 -0.25524914 0.08834736 1.2028408 -0.3572737 0.10870083
-0.4724285 -1.9038284 -0.3480266 0.5186931 -0.01255295 -0.05141712 0.30139282 0.0603125
0.6211834 -1.9398693 0.28496268 -0.49863935 -0.47888732 -1.5258979 -0.29913828 -0.39208776
-0.29845357 0.4240251 -0.22230428 -1.005392 -0.12585641 -1.1610854 -0.12994201 0.17369004
0.29361042 -0.41554627 -1.0089831 -0.1992845 -0.11176146 -2.67107 0.05235851 -0.057284374
-0.22489573 -0.6943341 1.1284744 -0.49424297 -0.30129644 -1.2667253 0.41175175 -0.6156405
-0.04272618 -2.7284079 -0.0017539347 0.012659247 0.5403197 -1.3188522 -0.5072724 -0.37997743
-0.06589818 1.821288 0.268698 -0.9777253 0.019340783 0.9708489 0.24150503 -0.23633495
-0.07268535 1.0394764 0.85838896 0.53067255 0.37531626 -1.1788017 0.9144677 0.8389343
0.024529897 -0.016834656 0.049492586 0.7696086 0.2028382 0.28889486 -0.4460351 -0.3858937
00000000: 48af c9be abfb 2b3e 5fff 1c3f 04b0 82be
00000010: 76ef b43d b0f6 993f 94ec b6be 8a9e de3d
00000020: 26e2 f1be a6b0 f3bf 8b30 b2be 12c9 043f
00000030: e3aa 4dbc c29a 52bd 2950 9a3e 3d0a 773d
00000040: e005 1f3f a34d f8bf a1e6 913e a84d ffbe
00000050: b830 f5be 9f50 c3bf a728 99be babf c8be
00000060: e8ce 98be d119 d93e bca3 63be afb0 80bf
00000070: 81e0 00be 729e 94bf 850f 05be cddb 313e
00000080: 1b54 963e 7bc2 d4be 5c26 81bf 3c11 4cbe
00000090: 31e3 e4bd d0f2 2ac0 e175 563d 05a3 6abd
000000a0: 114b 66be e1bf 31bf d971 903f 6a0d fdbe
000000b0: 8743 9abe 0e24 a2bf 20d1 d23e 9e9a 1dbf
000000c0: a601 2fbd 3c9e 2ec0 48e4 e5ba bb68 4f3c
000000d0: 6452 0a3f 26d0 a8bf 9bdc 01bf 678c c2be
000000e0: a0f5 86bd f71f e93f c992 893e 354c 7abf
000000f0: 9070 9e3c 8e89 783f 184d 773e ca01 72be
00000100: 0fdc 94bd 900d 853f 61bf 5b3f 28da 073f
00000110: 7429 c03e f9e2 96bf 8e1a 6a3f 66c4 563f
00000120: ecf2 c83c d5e8 89bc bdb8 4a3d 1205 453f
00000130: d1b4 4f3e 07ea 933e b65e e4be dc93 c5be

bias f4 [20]
0.5426673 0.45127723 0.30773562 0.5343042 0.46927086 0.5980957 -0.14178404 0.6222574
-0.56211555 0.32640752 -0.8201257 0.50926334 0.25830644 0.33038166 -0.087723486 -0.45760757
0.18147135 -0.6676192 -0.7543559 0.35511756
00000000: 3fec 0a3f cf0d e73e 868f 9d3e 29c8 083f
00000010: 4544 f03e cd1c 193f d62f 11be 434c 1f3f
00000020: cee6 0fbf e31e a73e c2f3 51bf 155f 023f
00000030: be40 843e c927 a93e 5fa8 b3bd 8a4b eabe
00000040: a0d3 393e 18e9 2abf 781d 41bf f8d1 b53e

weight f4 [16, 20]
0.1723883 0.13945174 -0.097491525 0.08464928 1.393137 -0.54332256 0.32811517 0.7922262
1.204428 -0.6464923 -0.84443337 -0.53863865 -0.65407807 -0.7258987 0.19094214 0.08840583
-0.14980403 1.4793346 -1.3894211 -0.045609877 -0.41637254 -0.6738964 1.2620003 -0.02823153
1.484324 0.47235802 -0.23293345 0.33911806 0.11731881 1.6815028 -0.094792664 0.53601956
1.5066984 0.10164039 -0.9204791 -0.39911845 -0.2208146 0.68627197 1.2731421 -0.18183349
0.41691524 0.041264694 -0.27665445 0.06749656 1.367373 -0.3217504 0.12817931 0.69033396
0.98357826 -0.90408033 -0.57564396 -0.28617054 -0.48889223 -1.0574604 -0.07189236 -0.38813302
-0.05927766 1.4028672 -1.4411299 0.15587023 -0.029723749 -0.48340327 1.0692663 0.021810198
1.6663632 0.35380355 -0.4046216 0.11736554 -0.58960253 1.4305824 -0.115747966 0.49539024
1.2343739 0.41779444 -0.98389906 -0.43269104 -0.36573666 0.5964011 1.403366 -0.089843675
-0.22008568 -0.56565076 1.12727 -0.028048962 1.4917097 0.547676 -0.20713082 0.30772004
0.16665475 1.8196201 0.06467063 0.42106605 1.4910233 0.11883664 -0.96733475 -0.5571549
-0.12122435 0.73121 1.42556 -0.37522337 -0.08890495 -0.14824423 0.06913109 -0.17784142
-0.02637801 -0.2116401 -0.13502781 -0.15992169 -0.093755156 0.023520589 -0.040533416 0.15287773
0.14026646 -0.15075786 0.07528413 -0.1051938 0.12714697 -0.24078363 0.0680102 -0.14583024
-0.07073703 -0.16930173 0.17196211 0.047858905 0.03617818 -0.13090011 -0.00784225 0.041098945
0.03606382 -0.045729414 0.16637734 0.049385685 -0.06938177 -0.1378195 -0.151576 -0.2232076
-0.1085069 -0.16320409 0.15338391 0.15938722 -0.21769421 -0.45262346 1.1234086 -0.15673545
1.4287506 0.24995986 0.026925495 0.2848926 0.027208567 1.7240132 -0.17117758 0.5612576
1.2584522 0.2169682 -1.0408723 -0.1818235 -0.14034835 0.61699265 1.308738 -0.4264744
-0.15413436 -0.7036326 0.96129256 0.027852725 1.5878872 0.42904872 -0.25533417 0.44404256
-0.114029035 1.3417181 0.03480801 0.53901756 1.5028274 0.37111714 -0.99137855 -0.413851
-0.6119912 0.64548117 1.2292116 -0.4492451 0.46686757 -0.055192307 0.16059142 0.1968421
1.3161049 -0.5691621 0.262105 0.6311794 1.3508188 -0.57804364 -1.0921712 -0.42533788
-0.4624325 -1.0010251 -0.14970107 -0.379008 -0.25057933 1.726903 -0.9606812 0.3557876
0.12505138 0.02175224 -0.12716381 -0.23409243 -0.12882374 -0.24574573 -0.07789842 0.03217272
0.055522107 0.09550541 -0.114905685 0.14461687 -0.004027987 0.07813102 -0.10780998 0.005961212
-0.074842356 0.04835852 0.037110344 -0.21048558 -0.21784873 -0.17564206 0.57527757 -0.057329983
0.84439915 0.12943302 -0.6101636 0.54153633 -1.8859278 0.6332688 0.0015125443 0.09935583
0.4549365 0.717809 -1.4077842 -0.5964413 -2.1951222 0.6284516 1.1581523 0.10438887
0.0072899982 -0.48335484 1.0430245 -0.08120033 1.369009 0.29699242 0.0189706 0.05815388
0.14386351 1.8346037 -0.01573169 0.1620879 1.7247537 0.18487558 -0.8813257 -0.7243165
00000000: 8f86 303e 70cc 0e3e a3a9 c7bd 9a5c ad3d
00000010: 5052 b23f 3017 0bbf b6fe a73e 56cf 4a3f
00000020: b22a 9a3f 8580 25bf c92c 58bf 39e4 09bf
00000030: a971 27bf 7fd4 39bf 5686 433e 1e0e b53d
00000040: 3a66 19be d65a bd3f 8dd8 b1bf 6cd1 3abd
00000050: c82e d5be 7984 2cbf 3a89 a13f cf45 e7bc
00000060: 54fe bd3f e9d8 f13e 1b86 6ebe e2a0 ad3e
00000070: d844 f03d 7c3b d73f a822 c2bd 9438 093f
00000080: 7edb c03f d628 d03d 85a4 6bbf 4159 ccbe
00000090: 391d 62be 85af 2f3f 52f6 a23f 8f32 3abe
000000a0: ea75 d53e 2b05 293d a7a5 8dbe a33b 8a3d
000000b0: 1406 af3f 78bc a4be 7041 033e bab9 303f
000000c0: c9cb 7b3f cf71 67bf 675d 13bf f284 92be
000000d0: 1550 fabe dd5a 87bf 4d3c 93bd 5fb9 c6be
000000e0: 22cd 72bd 2791 b33f f276 b8bf 729c 1f3e
000000f0: 387f f3bc a280 f7be b8dd 883f 4dab b23c
00000100: 644b d53f bd25 b53e 902a cfbe 585d f03d
00000110: 31f0 16bf 531d b73f 450d edbd caa3 fd3e
00000120: f7ff 9d3f 27e9 d53e cfe0 7bbf ae89 ddbe
00000130: d641 bbbe bead 183f 7fa1 b33f f6ff b7bd
00000140: 245e 61be 7dce 10bf 624a 903f f0c6 e5bc
00000150: 58f0 be3f 7f34 0c3f 1a1a 54be 7b8d 9d3e
00000160: 8ba7 2a3e 50e9 e83f 0972 843d f895 d73e
00000170: dad9 be3f a060 f33d 40a3 77bf b4a1 0ebf
00000180: 7944 f8bd 9430 3b3f c078 b63f 471d c0be
00000190: cc13 b6bd 56cd 17be 9a94 8d3d 101c 36be
000001a0: b216 d8bc 2fb8 58be bb44 0abe 83c2 23be
000001b0: b402 c0bd 40ae c03c 5e06 26bd fb8b 1c3e
000001c0: 03a2 0f3e 4560 1abe 912e 9a3d d96f d7bd
000001d0: d132 023e fc8f 76be ef48 8b3d 8654 15be
000001e0: 93de 90bd 6f5d 2dbe d616 303e b307 443d
000001f0: 922f 143d ae0a 06be c87c 00bc 5e57 283d
00000200: a8b7 133d c44e 3bbd d25e 2a3e a548 4a3d
00000210: 0818 8ebd 8e20 0dbe bd36 1bbe 8890 64be
00000220: de38 debd f91e 27be ac10 1d3e 6736 233e
00000230: 3beb 5ebe 43be e7be dacb 8f3f 427f 20be
00000240: 4de1 b63f 7af5 7f3e db92 dc3c 71dd 913e
00000250: 80e4 de3c 77ac dc3f 2d49 2fbe 94ae 0f3f
00000260: f614 a13f e92c 5e3e 4e3b 85bf f12f 3abe
00000270: 7ab7 0fbe 3bf3 1d3f ba84 a73f da5a dabe
00000280: 66d5 1dbe 4421 34bf 4517 763f 662b e43c
00000290: e33f cb3f 46ac db3e 29bb 82be 8c59 e33e
000002a0: 0e88 e9bd 6bbd ab3f d892 0e3d 0efd 093f
000002b0: a65c c03f 1103 be3e fcca 7dbf 47e4 d3be
000002c0: 75ab 1cbf 413e 253f ce56 9d3f 7403 e6be
000002d0: 4409 ef3e 5411 62bd 1472 243e fa90 493e
000002e0: 2076 a83f 9bb4 11bf a032 863e f994 213f
000002f0: a1e7 ac3f abfa 13bf 44cc 8bbf e3c5 d9be
00000300: f4c3 ecbe 9721 80bf 3d4b 19be 560d c2be
00000310: ef4b 80be 280b dd3f 34ef 75bf cb29 b63e
00000320: 780d 003e c131 b23c 3b37 02be edb5 6fbe
00000330: 5fea 03be c5a4 7bbe 3589 9fbd 8bc7 033d
00000340: 266b 633d 5798 c33d ac53 ebbd 7216 143e
00000350: 34fd 83bb 2803 a03d 7bcb dcbd 4556 c33b
00000360: f346 99bd 9513 463d 0401 183d 8889 57be
00000370: bd13 5fbe 83db 33be 6445 133f d8d2 6abd
00000380: 8b2a 583f 178a 043e af33 1cbf 20a2 0a3f
00000390: 1566 f1bf e71d 223f 9140 c63a 127b cb3d
000003a0: 70ed e83e 55c2 373f 4632 b4bf 61b0 18bf
000003b0: e27c 0cc0 34e2 203f 563e 943f d5c9 d53d
000003c0: f0e0 ee3b 497a f7be d481 853f 5c4c a6bd
000003d0: b03b af3f 640f 983e 3b68 9b3c c332 6e3d
000003e0: f550 133e 4bd4 ea3f bfdf 80bc 5ffa 253e
000003f0: bbc4 dc3f 0650 3d3e 909e 61bf ce6c 39bf

bias f4 [16]
0.6086162 -0.25768855 0.17257698 -0.04944577 -0.26423773 -0.059149288 -0.21004932 -0.17655535
-0.004219106 0.78147465 -0.20311746 0.46571216 -0.1931193 0.4699379 0.48056597 -0.06384418
00000000: 45ce 1b3f c1ef 83be 05b8 303e a687 4abd
00000010: 2b4a 87be 8646 72bd 2b17 57be edca 34be
00000020: 6d40 8abb b90e 483f 06fe 4fbe d371 ee3e
00000030: 11c1 45be b39b f03e be0c f63e bdc0 82bd

weight f4 [2, 16]
0.4527439 -1.7609026 0.3025051 -1.7218397 -2.1150563 -0.025331523 0.16309911 -1.7967434
-1.529135 0.83469343 0.09895706 -2.4486296 -2.4980767 -3.1013935 1.1419739 -1.475466
-0.23742585 1.3826804 0.023793992 1.677885 2.381366 -0.029135058 -0.060909223 1.5965016
1.4312154 -0.77037704 -0.19187538 2.2326002 2.4649155 3.1696317 -1.2422364 1.8020053
00000000: 0cce e73e 4265 e1bf f3e1 9a3e 3e65 dcbf
00000010: 155d 07c0 0e84 cfbc 7403 273e b0fb e5bf
00000020: b2ba c3bf 78ae 553f 00aa ca3d 59b6 1cc0
00000030: 7de0 1fc0 3b7d 46c0 332c 923f 12dc bcbf
00000040: c31f 73be acfb b03f 9eeb c23c f0c4 d63f
00000050: 4d68 1840 a5ac eebc f37b 79bd 2a5a cc3f
00000060: 1132 b73f 6e37 45bf fb7a 44be ece2 0e40
00000070: 2dc1 1d40 3fdb 4a40 9a01 9fbf 1ca8 e63f

bias f4 [2]
0.3267195 -0.1536482
00000000: c747 a73e f455 1dbe
