data/synthetic/synthetic_model_simple.pt (torch, 4375 bytes, 5 tensors)

weight f4 [20, 4]
00000000: f4bf 213e c70d 3cbe 07a1 303d 9c39 3fbe
00000010: 6d7d cdbd 94ce 3e41 5110 d73d c8d8 d7bd
00000020: 7679 ed3f d0d7 8e3f 54df 093f c0b1 273f
00000030: f82f f7bc 77f8 9dbd f802 b23b bf62 26bd
00000040: 77de 58bf 5698 b6be 20dd 7fbd c85e 0abf
00000050: cc57 0ebf 9aa5 cc3b e66c aa3e a2c8 b0bd
00000060: 2cd5 0cbf c4a7 d1be b673 043d 1411 88bd
00000070: 203c e0be a72f 6cc0 e544 a83f 33e7 b83e
00000080: e287 e1be f706 13bf 5b9e b33e 073c 933e
00000090: aae3 aebd 2544 a33d dd48 d1bd d14a 64be
000000a0: a9e4 ce3e fcb4 8c3c 8c2d 36be 7f72 5ebe
000000b0: 63c7 02be cbae 03bf d074 aabe 2bf6 57bd
000000c0: 0911 1541 6854 86bf a4fc b33d 3d41 98be
000000d0: f99b 3041 779d 543c f75b 47bc 2fb3 3b3d
000000e0: 0285 0f41 2eb3 5cbf d48b 293f e78f 823e
000000f0: bfaf f5bf e611 42c0 33dd 1ebf c1e7 12bf
00000100: dfe7 d3bd be15 a73d efc9 523d 5f87 1b41
00000110: 2562 a63f a248 32be 3128 bb3b 3609 cfbe
00000120: 8fd1 adbd 8bd9 0ebd 6cb5 54be cd06 4b3e
00000130: 4957 563d fc64 fc3d fc8b 9041 8292 78bd
0.1579588 -0.1836463 0.043122318 -0.1867432 -0.10033689 11.925434 0.10501159 -0.105393946
1.8552692 1.1159611 0.53856397 0.655056 -0.03017424 -0.077134065 0.005432483 -0.040621515
-0.84714454 -0.35663098 -0.06246674 -0.54050875 -0.5560272 0.006245327 0.33286208 -0.08632018
-0.55012774 -0.40948308 0.032336913 -0.066438824 -0.43795872 -3.6904085 1.3146025 0.3611389
-0.44048983 -0.574325 0.35081753 0.28756735 -0.08539517 0.07971982 -0.10218976 -0.22294165
0.4040883 0.017176144 -0.17790812 -0.21723364 -0.12771372 -0.5143859 -0.33292246 -0.052725
9.316659 -1.0494509 0.08788422 -0.29737273 11.038079 0.012976996 -0.012167922 0.04582518
8.969973 -0.86210907 0.66228986 0.25500414 -1.9194258 -3.0323424 -0.62056273 -0.5738488
-0.1034696 0.08158444 0.05146211 9.72055 1.2998701 -0.1741052 0.0057115783 -0.40436715
-0.08487236 -0.034875434 -0.20772332 0.19826813 0.052329335 0.12323949 18.068352 -0.060686596

bias f4 [20]
00000000: b79e 00c0 2a4f 89c0 f7e5 a0c0 6379 d3be
00000010: fc13 65c0 163b 35c0 1d20 1bc0 9f40 4740
00000020: 59b5 2ec0 ffcd b7bf 17bc 01c0 47b8 28c0
00000030: 8254 8bc0 415f a2c0 d39c 8cc0 5a58 9ac0
00000040: aad7 86c0 a56b 2dc0 a5b7 b4bf d857 cf3e
-2.0096872 -4.2909136 -5.028072 -0.41303548 -3.5793447 -2.8317313 -2.423835 3.1133192
-2.7298186 -1.435974 -2.027105 -2.6362474 -4.354066 -5.0741277 -4.3941436 -4.823285
-4.213826 -2.709695 -1.4118544 0.40496707

weight f4 [10, 20]
00000000: ec7d 153f ae22 2cc1 4c57 c0bf abec dc3d
00000010: 946f 423e 7692 023d 9649 1b3f 0d08 1ebf
00000020: bb05 cdbd 8b83 adbe cb89 eabd 0a65 2abf
00000030: 9c12 c9c0 ec00 63c1 198f 7fc0 d8e0 5840
00000040: 874a b8bd 9499 4bbf d974 91be 3866 6fbf
00000050: 0af3 943e 56ea 0bbf 546f 80bf 6fe9 8d3e
00000060: 3857 3440 fc80 713e 1f0b 1abe 722f 26c0
00000070: 7e73 8dbf d50d 7a3f b47b 2f3f 8167 db3e
00000080: 1cbb 5440 d80c 4e41 aecc 9940 3006 68bf
00000090: 9ba6 86be 7d50 513d b145 1bbf dd62 eabe
000000a0: 9e34 0fbe 7039 32bf 8ac3 093f 2da2 193d
000000b0: 08af a9bd aa2d 45be 177b cdbd 6b64 dbc0
000000c0: 790a 1c3d d049 47bd 7a62 c63d ed0e 74be
000000d0: e688 1e40 8385 0f41 a924 1741 82e9 5e40
000000e0: adf3 5f3d 0f33 533e 7576 9bbd 836e 313f
000000f0: 1add c53e 94fb 62c1 a6e2 0abf 66e4 903e
00000100: 6a09 a1be ac46 883e a4ce 91be cd39 5b3f
00000110: 0b06 ac3d f1bd a2be 6a09 da3d 85aa 9f3b
00000120: 3ea0 1fc0 d00b 89c1 42de 2dc0 6cbc b73f
00000130: eea7 7a3d 86f4 efbe 1201 c13e b85d d33a
00000140: 357c 9b3e 653b b8be 7509 18c0 e3bf 153e
00000150: 2ebc 5d40 eba0 f2be 0604 bc3e 3453 eebf
00000160: 8d72 653f d3aa 0ebf e91d 4f3f a1c5 263e
00000170: 6d44 1e40 c32c b340 1496 b53f 2dc8 b23f
00000180: 10a5 4cbf 2090 49bf 8d94 c2bc e626 aabe
00000190: 1763 21be 2f5c 083e 4955 603e 3dd6 c1be
000001a0: 64ff dc3f 05e7 7d3d 215e e13e 0866 59bf
000001b0: da82 2d3e d57a 6dbe c9ce d23f bbd7 b23e
000001c0: 0f80 abbf b964 31c1 a430 0e3f 4455 f83f
000001d0: 7fac 0ec1 1202 edbe e501 7ebd 48ab 12c1
000001e0: 4652 a7be c707 2ebf 53b2 05bf c43d 68be
000001f0: cc88 afbe 3ee1 c2be d72b 18be 487f 96bf
00000200: f64a df3e b255 2ebe 5410 40be ec04 7bbe
00000210: ba5e eebd f6f3 f1bd eebc 25bf 36aa 7fbd
00000220: 5eaa 96bf 48e2 68bf 9326 bbbe 0d6b 8dbf
00000230: b5a4 c7be b794 80be 2cfa cabd 116e ae3d
00000240: 48b6 76be ecf0 60be 1fb1 b8bd 060f 62bd
00000250: 0a4a b4bd 7359 c63d 45a4 0abe 3764 5d3d
00000260: b3f5 40be ed44 42bd b0a9 92be 7a99 8bbe
00000270: 997f dcbd be71 88bd 01ba 96be bd89 55bd
00000280: e4db e5be 7a0f 80c0 7754 4bbf c6b3 ad3e
00000290: 5f57 64be 5723 5bbe 3b3f 94bf 1d98 89bf
000002a0: 99a1 c1bf c45a 0c3e 9a78 31bd f31d 3fbe
000002b0: 3df6 68c0 ce63 5cc0 bdb7 18c0 4855 17c0
000002c0: be09 d3bf 2b7c d6bd 5f6a 85bf d3a1 10bf
000002d0: 5418 58bc 8e5e 41bd 4e70 bdbe ac78 59ba
000002e0: eb55 f6bd 0a47 babe b422 8fbe 5119 1cbe
000002f0: 9464 edbd d93b bcbe 3bbc 01be 9cc6 dfbc
00000300: b645 6abe 5c4b babe b257 7bbe d361 b6bd
00000310: bf84 c9bd 1896 34be 8970 9a3c ac87 bfbe
0.58395267 -10.758467 -1.5026641 0.10787328 0.18987876 0.031877957 0.6065916 -0.61731035
-0.100108586 -0.33889422 -0.11452063 -0.66560423 -6.2835217 -14.187725 -3.993109 3.3887234
-0.0899859 -0.79531217 -0.2840946 -0.9351535 0.29091674 -0.54654443 -1.0033975 0.27717158
2.8178234 0.2358436 -0.15043305 -2.5966458 -1.105087 0.97677356 0.6854813 0.42852405
3.3239202 12.878136 4.8062353 -0.9063444 -0.26298985 0.05110215 -0.60653216 -0.45778552
-0.13984916 -0.6961889 0.53813994 0.03750818 -0.08285338 -0.192557 -0.10033243 -6.856008
0.038095925 -0.048654377 0.09686752 -0.23833819 2.4771056 8.970096 9.44645 3.4830022
0.054675747 0.20624946 -0.07590953 0.6930925 0.3864525 -14.18642 -0.5425209 0.28299254
-0.31452495 0.26616418 -0.28477967 0.8563507 0.0839959 -0.3178554 0.10646327 0.0048726224
-2.4941554 -17.130768 -2.7166905 1.4354377 0.061195306 -0.46866244 0.3769613 0.0016125953
0.303682 -0.35982814 -2.3755772 0.1462398 3.4646106 -0.47388396 0.3672182 -1.8619142
0.89627916 -0.5572941 0.80905014 0.16286327 2.4729264 5.599214 1.4186425 1.3967339
-0.79939365 -0.7873554 -0.023752475 -0.33232802 -0.15760456 0.13316415 0.21907534 -0.37858763
1.7265439 0.061987896 0.44017127 -0.8492131 0.16944447 -0.23191388 1.6469356 0.34930214
-1.3398455 -11.0870905 0.5554297 1.9401021 -8.917113 -0.46290642 -0.062013526 -9.166817
-0.32679957 -0.6798062 -0.52225226 -0.22679812 -0.34284055 -0.3806247 -0.14860474 -1.1757593
0.43611878 -0.17024878 -0.18756229 -0.24513596 -0.116391614 -0.1181411 -0.6474141 -0.062418185
-1.1770742 -0.9097028 -0.36552867 -1.1048294 -0.3899285 -0.2511346 -0.09910998 0.08517087
-0.24092972 -0.21966904 -0.09018158 -0.05519011 -0.08803184 0.0968503 -0.13539226 0.05405065
-0.18843727 -0.047429014 -0.28645086 -0.2726553 -0.10766525 -0.066623196 -0.29438785 -0.05213331
-0.44894326 -4.001889 -0.7942576 0.3392622 -0.22298954 -0.214002 -1.1581796 -1.0749546
-1.5127441 0.137065 -0.043327905 -0.18663768 -3.6400292 -3.4435916 -2.3862145 -2.3645802
-1.6487348 -0.10472902 -1.0423087 -0.56496924 -0.013189394 -0.047209315 -0.36999744 -0.00082958746
-0.12028106 -0.36382324 -0.27956164 -0.15244032 -0.115914494 -0.3676441 -0.1266946 -0.027316384
-0.22878155 -0.3638562 -0.24545172 -0.08905377 -0.098397724 -0.17635381 0.01885249 -0.37408197

bias f4 [10]
00000000: 41db c740 dacc 24c1 cd5f e1bf ed5d 4941
00000010: 4686 c6c0 de6b 2741 363c 4fbe 0aea 91be
00000020: aac5 413f b622 08be
6.2455144 -10.300013 -1.7607361 12.585431 -6.203891 10.463835 -0.20237812 -0.2849887
0.75692236 -0.13294491

weight f4 [1, 10]
00000000: 9e38 63bf c673 aa3e de18 eb3e ecc5 72bf
00000010: 7fc6 56be 61c2 a0bf d4eb d2bd 4b91 c5bd
00000020: feec 273d 81e5 e6bd
-0.88758266 0.33291453 0.4591741 -0.94833255 -0.20974158 -1.255932 -0.10298887 -0.09646853
0.040997498 -0.11274243
