train/hepatitis/Hepatitis_model_simple_v1.pt (torch, 5591 bytes, 6 tensors)

weight f4 [30, 10]
0.29396316 0.120815866 -0.1297907 -0.5378613 -0.4375484 -0.60648596 -0.5122397 0.06731404
-0.050157 -0.21161012 -0.41800427 0.234638 -0.22822374 -0.64655757 0.2004676 0.2217019
-0.011944242 -0.03202428 -0.69138813 0.14960502 -0.18321037 -0.49930748 -0.7817078 -0.15540275
0.21487454 -0.39077634 0.09416418 -0.41956332 0.18729933 0.11311503 -0.14623189 -0.3518402
-0.010756936 0.29299262 0.11720828 -0.12795219 -0.1664035 -0.31619516 0.115155704 0.27210754
0.24823125 -0.025189329 -0.3865691 0.17149116 -0.0025813836 0.25385267 0.061724365 0.11855957
0.31583524 -0.01769263 -0.14434765 0.24580498 0.08479032 0.028318353 -0.15390027 -0.004641434
-0.48639977 0.4819181 0.31145102 0.13265067 0.44501802 0.50643736 0.09689448 -0.05589657
0.111719824 0.38621905 0.093514785 -0.055840816 -0.20532212 0.31196705 0.48946756 -0.15877406
-0.51026034 -0.17619906 -0.339445 0.07444502 -0.26989338 0.062384307 -0.12010313 0.3569812
0.3503364 0.4346265 0.07017508 -0.026757194 -0.7091746 -0.3311352 0.41719005 -0.3703661
0.21067964 0.10665931 0.24886261 -0.3719905 -0.39961532 -0.17270134 -0.07966278 0.29936188
-0.3439392 -0.20787266 -0.3252389 -0.3575165 0.092931 -0.10356936 0.23327957 -0.51998776
-0.00014842306 -0.062108196 -0.036652993 0.099867456 0.019265888 0.30997247 -0.22861262 -0.20484985
-0.72644717 0.16377799 0.2007757 -0.13271816 0.043315414 0.29080728 0.22781913 0.13713226
-0.4433017 -0.04882179 -0.097843386 -0.46598417 0.19228339 0.27655083 0.280215 0.015337324
-0.13902971 -0.1966677 -0.043692708 0.09889919 -0.011089698 -0.6989394 -0.07613446 0.04255577
-0.26024997 -0.113477364 -0.098818436 -0.115063645 0.08893194 -0.15774931 0.02482695 -0.6889674
-0.18657948 -0.58041346 0.40828654 0.16298497 -0.28843886 0.13776225 -0.5436023 0.31479537
0.05607874 0.05026888 0.39089182 0.17724802 -0.3223848 -0.370678 0.17701103 0.49687123
-0.43622652 0.16559489 -0.13953671 0.16133429 0.35972846 0.3823921 0.013817257 -0.3032361
0.06922591 -0.18601424 0.13011767 0.29132262 0.001263085 -0.32301986 -0.23756142 -0.13425334
-0.16740294 -0.17872854 -0.09450513 -0.04723359 -0.22509064 -0.034580704 0.044650514 0.3293581
0.08149102 0.06359867 -0.14100336 0.22838897 0.21490595 0.4994626 -0.20560655 -0.10889774
-0.9622792 0.08130961 0.28824997 0.05254477 0.057567302 0.11344066 0.29883882 0.0052358755
0.13468981 0.0036709516 0.15951872 0.24105833 0.007770649 0.29689652 0.4377529 -0.16829476
-0.42283884 -0.07881617 -0.0445038 0.17533426 -0.04144683 -0.80013424 -0.07485796 -0.11328544
-0.017540488 0.158727 -0.081925556 0.12227478 -0.6141807 -0.06555383 -0.019799279 -0.3870896
-0.6738602 0.13040951 0.3367181 0.22859645 0.13893865 0.05885084 -0.3499725 -0.20139918
0.032708533 -0.9033966 -0.7684713 -0.2123856 0.114147104 0.040025674 -0.17861976 0.1334771
-0.29492912 0.03267706 -0.066166274 0.22974032 0.2711856 0.044905398 -0.2840607 0.00017789315
0.34366202 0.5115627 -0.361499 0.1899639 0.25102696 0.10965708 0.18396373 -0.26935372
00000000: 5782 963e 4f6e f73d dae7 04be 47b1 09bf
00000010: 5806 e0be aa42 1bbf 2422 03bf f2db 893d
00000020: 6d71 4dbd 53b0 58be a804 d6be f244 703e
00000030: 7cb3 69be cc84 25bf 6147 4d3e d305 633e
00000040: c8b1 43bc e42b 03bd d0fe 30bf 0f32 193e
00000050: 809b 3bbe 3ba5 ffbe 011e 48bf e621 1fbe
00000060: 1208 5c3e d613 c8be 26d9 c03d 01d1 d6be
00000070: 65cb 3f3e daa8 e73d d0bd 15be 6624 b4be
00000080: dc3d 30bc 2103 963e e50a f03d e605 03be
00000090: ae65 2abe 55e4 a1be c1d6 eb3d ae51 8b3e
000000a0: 5530 7e3e da59 cebc 63ec c5be 619b 2f3e
000000b0: 6e2c 29bb faf8 813e b0d2 7c3d 5ccf f23d
000000c0: 28b5 a13e 22f0 90bc dfcf 13be 4db4 7b3e
000000d0: 8ca6 ad3d e4fb e73c 0898 1dbe 2c17 98bb
000000e0: 6409 f9be f8bd f63e 8276 9f3e 94d5 073e
000000f0: 67d9 e33e e1a5 013f 9d70 c63d cdf3 64bd
00000100: 5dcd e43d 81be c53e ae84 bf3d 57b9 64bd
00000110: f63f 52be 25ba 9f3e 7e9b fa3e ab95 22be
00000120: 6ca0 02bf 876d 34be bccb adbe a176 983d
00000130: 772f 8abe b086 7f3d a1f8 f5bd 3dc6 b63e
00000140: 4b5f b33e 5d87 de3e f4b7 8f3d e731 dbbc
00000150: 778c 35bf 8e8a a9be ef99 d53e a0a0 bdbe
00000160: 67bc 573e 3270 da3d d7d5 7e3e 8a75 bebe
00000170: 619a ccbe 9fd8 30be 3d26 a3bd f645 993e
00000180: cc18 b0be 92dc 54be b785 a6be 670c b7be
00000190: 9c52 be3d 2c1c d4bd d7e0 6e3e eb1d 05bf
000001a0: 03a2 1bb9 2a65 7ebd 7321 16bd 4f87 cc3d
000001b0: 7fd3 9d3c b6b4 9e3e 6d19 6abe 29c4 51be
000001c0: 71f8 39bf 6bb5 273e 2598 4d3e 45e7 07be
000001d0: 816b 313d b1e4 943e 6b49 693e 666c 0c3e
000001e0: 71f8 e2be 5bf9 47bd 1d62 c8bd 7a95 eebe
000001f0: f0e5 443e 1298 8d3e 5778 8f3e 6649 7b3c
00000200: ce5d 0ebe 4263 49be 20f7 32bd a98b ca3d
00000210: 91b1 35bc b1ed 32bf 62ec 9bbd f64e 2e3d
00000220: 7c3f 85be d266 e8bd 5261 cabd 7da6 ebbd
00000230: f321 b63d 0989 21be e361 cb3c 2b60 30bf
00000240: b10e 3fbe fa95 14bf ef0a d13e 88e5 263e
00000250: 42ae 93be 8c11 0d3e 8529 0bbf dc2c a13e
00000260: d2b2 653d bee6 4d3d f922 c83e 8180 353e
00000270: 9f0f a5be 82c9 bdbe 6142 353e e865 fe3e
00000280: 1559 dfbe b591 293e b6e2 0ebe d134 253e
00000290: 542e b83e e6c8 c33e c761 623c c341 9bbe
000002a0: 50c6 8d3d 847a 3ebe 913d 053e 3d28 953e
000002b0: 1a8e a53a dc62 a5be 4d43 73be b579 09be
000002c0: ad6b 2bbe 9d04 37be e88b c1bd 0278 41bd
000002d0: 297e 66be 7fa4 0dbd 75e3 363d a0a1 a83e
000002e0: c4e4 a63d 0540 823d 2f63 10be ccde 693e
000002f0: 4e10 5c3e 90b9 ff3e 868a 52be c705 dfbd
00000300: ee57 76bf a785 a63d 8095 933e 2f39 573d
00000310: b1cb 6b3d 9453 e83d 6701 993e b591 ab3b
00000320: 20ec 093e 5994 703b e058 233e ffd7 763e
00000330: eea0 fe3b d202 983e 2621 e03e 7655 2cbe
00000340: 557e d8be 5f6a a1bd 9e49 36bd d38a 333e
00000350: 27c4 29bd 99d5 4cbf 214f 99bd 3202 e8bd
00000360: 12b1 8fbc 5589 223e 96c8 a7bd 336b fa3d
00000370: f23a 1dbf 1641 86bd 1932 a2bc 9c30 c6be
00000380: 1a82 2cbf 128a 053e 5166 ac3e 3015 6a3e
00000390: ef45 0e3e 940d 713d 982f b3be 963b 4ebe
000003a0: 62f9 053d 0045 67bf 89ba 44bf 9c7b 59be
000003b0: f5c5 e93d f6f1 233d 19e8 36be 39ae 083e
000003c0: f300 97be 62d8 053d 2f82 87bd 0c41 6b3e
000003d0: d7d8 8a3e b9ee 373d 6770 91be d488 3a39
000003e0: 78f4 af3e c6f5 023f 6616 b9be e685 423e
000003f0: 9b86 803e e493 e03d fd60 3c3e bbe8 89be

bias f4 [30]
0.0064089354 0.24388859 0.3783342 -0.20130466 0.30701837 -0.4603823 0.20680003 0.21535212
0.07724789 0.51317024 0.48929593 -0.028848996 0.020092731 0.47135857 0.05160992 0.2248992
-0.12696981 0.46689278 -0.070186205 -0.057373453 0.10201847 0.4039612 0.06803885 0.10736275
0.11676621 -0.27480635 0.14775571 -0.15111539 0.1974354 0.40770778
00000000: 0c02 d23b eebd 793e 05b5 c13e cf22 4ebe
00000010: 8331 9d3e 3bb7 ebbe 63c3 533e 4485 5c3e
00000020: 2434 9e3d 205f 033f ff84 fa3e bb54 ecbc
00000030: 8399 a43c e955 f13e ec64 533d fa4b 663e
00000040: 6004 02be 920c ef3e c9bd 8fbd 6d00 6bbd
00000050: 0fef d03d 01d4 ce3e f457 8b3d 00e1 db3d
00000060: 1f23 ef3d 6bb3 8cbe 464d 173e febd 1abe
00000070: 812c 4a3e 13bf d03e

weight f4 [10, 30]
0.34603763 0.40694344 0.14595868 -0.24607426 -0.1204398 -0.23989671 0.40015858 0.34853792
0.42812333 0.06520919 0.2674396 -0.3467485 -0.004323845 0.31566924 0.4466217 -0.14931904
0.24655114 0.15217122 -0.34584898 -0.32719332 -0.03188605 0.28845862 0.36405706 0.26740256
-0.19160645 0.06987235 0.36672223 -0.22950181 -0.27623174 0.26144063 0.07870324 0.64076567
-0.034248665 -0.26045525 -0.16955107 -0.09081277 0.15924147 0.24878642 0.4695789 0.10848236
0.44035304 -0.41795912 0.16058622 0.4034876 0.32490936 0.06788388 0.24563539 0.26545393
-0.19849068 -0.41488922 -0.2922197 0.29668468 0.65224004 0.4421441 -0.29937866 -0.10972532
0.5046333 -0.1922796 -0.35035753 0.19092819 -0.04696111 -0.35422602 0.23409614 0.1100797
0.23720755 0.2983272 -0.076759696 -0.009966849 -0.28491613 0.24835633 -0.24233685 0.18977448
0.030474255 -0.115836896 -0.36282703 0.19142663 -0.19941583 -0.030797157 0.20922129 0.2173098
0.18773614 0.0026377558 -0.20409098 -0.11602977 0.05254481 0.13267823 -0.24760345 0.43177927
0.3761635 -0.08795073 0.2802166 0.47938362 -0.042715885 -0.303465 -0.01404642 -0.0333959
0.15561701 0.21666406 0.70397353 0.028150702 0.4514148 -0.31790042 0.11781533 0.30416805
0.5291577 -0.04115012 0.17388989 0.272424 -0.112065114 -0.38239974 -0.06622117 0.17137949
0.280556 0.61839795 -0.2172843 0.038519762 0.19038284 -0.399649 -0.24666347 0.22622925
0.069231115 -0.2926513 0.2649211 -0.0039101364 0.039409306 0.3175704 -0.17748053 0.37506843
-0.24679354 0.1454869 -0.053751122 0.109279566 -0.27352378 -0.3417108 -0.11191144 0.26511973
0.036440298 -0.13286763 0.04793269 0.27991757 -0.28830168 -0.15610225 -0.0043391944 -0.07468485
0.09707297 0.18041568 0.022052307 0.2618817 0.11635924 0.18285738 -0.11456137 -0.37497637
0.4798943 -0.08824751 0.1536392 0.17123066 0.14671028 0.07348927 -0.43407774 0.002976485
-0.023715764 -0.07723405 -0.15257761 -0.33561346 0.033986535 0.27004927 0.068556234 -0.40648222
0.09246238 0.16080643 -0.15125789 -0.3594065 -0.47617912 -0.13349295 0.26249447 0.20411885
-0.2058172 0.46016225 0.06837968 -0.06089439 0.2211704 0.43421635 0.16315134 -0.35903186
-0.017367924 -0.16663073 0.36301404 0.33728945 0.6522082 0.18462163 0.3296426 -0.3804442
0.010857606 0.2616041 0.46070057 -0.099089764 0.17870305 0.19414258 -0.37326422 -0.23620622
-0.091354325 0.34194663 0.32699698 0.57116055 -0.20490757 -0.028394789 0.2618302 -0.2273995
-0.3471556 0.034925755 0.28765613 -0.24799776 0.33243817 -0.10846738 0.027880624 0.37393984
0.20596805 0.08922463 -0.3665 -0.22605853 0.043979596 0.074086845 -0.3269014 -0.36645862
0.064375974 0.35171017 0.07938271 -0.3931321 0.22347274 0.23122083 0.16033378 -0.06439495
-0.18329118 -0.029972773 -0.0052236235 0.29640973 -0.06916467 0.4892402 -0.18317448 -0.061493892
-0.37946063 -0.47420403 0.22740617 0.18789978 -0.07263897 0.041497383 -0.47133806 0.15685739
-0.069691524 0.35653698 -0.30290204 0.111738 0.035719644 0.14443064 -0.3478606 0.13118844
00000000: d82b b13e e45a d03e 3176 153e e4fa 7bbe
00000010: 24a9 f6bd 7ca7 75be 96e1 cc3e 9073 b23e
00000020: fb32 db3e 658c 853d d8ed 883e 0589 b1be
00000030: 0aaf 8dbb 669f a13e 99ab e43e 17e7 18be
00000040: e777 7c3e c6d2 1b3e 1e13 b1be e285 a7be
00000050: f29a 02bd d9b0 933e b065 ba3e fde8 883e
00000060: 7b34 44be 3c19 8f3d 04c3 bb3e 8602 6bbe
00000070: 3f6e 8dbe 8cdb 853e 2a2f a13d 3809 243f
00000080: 5448 0cbd 645a 85be cc9e 2dbe 0cfc b9bd
00000090: 3210 233e dec1 7e3e a56c f03e 002c de3d
000000a0: f475 e13e bdfe d5be b770 243e ed95 ce3e
000000b0: 855a a63e b406 8b3d d887 7b3e 94e9 873e
000000c0: 2441 4bbe 5c6c d4be d29d 95be 0ee7 973e
000000d0: 34f9 263f b660 e23e 2948 99be abb7 e0bd
000000e0: a62f 013f f2e4 44be 1062 b3be ae82 433e
000000f0: 4b5a 40bd 1d5d b5be e6b6 6f3e 7771 e13d
00000100: 89e6 723e 58be 983e 3034 9dbd ff4b 23bc
00000110: 87e0 91be 1f51 7e3e 2727 78be 3e54 423e
00000120: 25a5 f93c e53b edbd 77c4 b9be 5805 443e
00000130: aa33 4cbe 524a fcbc 1b3e 563e 7686 5e3e
00000140: e73d 403e 33de 2c3b 3afd 50be 04a1 edbd
00000150: 3a39 573d cddc 073e c28b 7dbe 2c12 dd3e
00000160: 8198 c03e 831f b4bd 8d78 8f3e c571 f53e
00000170: daf6 2ebd c45f 9bbe f522 66bc 24ca 08bd
00000180: 115a 1f3e 2fdd 5d3e 9c37 343f 4d9c e63c
00000190: d71f e73e d8c3 a2be 2a49 f13d eabb 9b3e
000001a0: e176 073f 078d 28bd 3110 323e 297b 8b3e
000001b0: 6582 e5bd e6c9 c3be f79e 87bd 1b7e 2f3e
000001c0: 09a5 8f3e 544f 1e3f c77f 5ebe e6c6 1d3d
000001d0: b8f3 423e cb9e ccbe 5995 7cbe a4a8 673e
000001e0: 0bc9 8d3d 64d6 95be bda3 873e 9a20 80bb
000001f0: a76b 213d 9698 a23e 75bd 35be f808 c03e
00000200: 72b7 7cbe 85fa 143e 232a 5cbd f7cd df3d
00000210: 4f0b 8cbe b8f4 aebe d331 e5bd c6bd 873e
00000220: 6c42 153d 740e 08be 1155 443d 5b51 8f3e
00000230: 479c 93be 45d9 1fbe cd2f 8ebb 5ff4 98bd
00000240: 31ce c63d e3be 383e 0aa7 b43c 5c15 863e
00000250: c14d ee3d f73e 3b3e 279f eabd e7fc bfbe
00000260: b5b4 f53e 1cbb b4bd 9853 1d3e 1757 2f3e
00000270: 383b 163e 8b81 963d 703f debe 2211 433b
00000280: 9047 c2bc e32c 9ebd 4e3d 1cbe 87d5 abbe
00000290: 7735 0b3d e643 8a3e 3667 8c3d 701e d0be
000002a0: eb5c bd3d 71aa 243e 59e3 1abe 2104 b8be
000002b0: c0cd f3be 60b2 08be ad65 863e 8804 513e
000002c0: bec1 52be 639a eb3e a50a 8c3d 656c 79bd
000002d0: 7e7a 623e 9b51 de3e 2511 273e 06d3 b7be
000002e0: 2d47 8ebc 3fa1 2abe fadc b93e 34b1 ac3e
000002f0: 1ef7 263f 740d 3d3e eac6 a83e 95c9 c2be
00000300: 1ae4 313c f9f0 853e f2e0 eb3e 93ef cabd
00000310: effd 363e 50cd 463e 7d1c bfbe 0be0 71be
00000320: fa17 bbbd a113 af3e 266c a73e 9437 123f
00000330: 4ad3 51be 309c e8bc 9c0e 863e 6adb 68be
00000340: 61be b1be 4f0e 0f3d aa47 933e 20f3 7dbe
00000350: 5635 aa3e 2524 debd e865 e43c 0b75 bf3e
00000360: 4ae9 523e 67bb b63d e3a5 bbbe e37b 67be
00000370: f323 343d d8ba 973d 9f5f a7be 77a0 bbbe
00000380: 8dd7 833d 5b13 b43e 6793 a23d 9c48 c9be
00000390: 0ad6 643e 27c5 6c3e 8a2e 243e 80e1 83bd
000003a0: afb0 3bbe 7689 f5bc ee2a abbb 04c3 973e
000003b0: 35a6 8dbd b17d fa3e 1792 3bbe 05e1 7bbd
000003c0: aa48 c2be dfca f2be 2add 683e cd68 403e
000003d0: bec3 94bd 29f9 293d 3953 f1be 399f 203e
000003e0: 6eba 8ebd 048c b63e fa15 9bbe e4d6 e43d
000003f0: c34e 123d a0e5 133e c91a b2be 4356 063e

bias f4 [10]
0.21671134 0.34490448 -0.00020580809 0.20936005 -0.14743136 0.010013533 0.34406585 -0.0127158705
0.06738497 0.008821742
00000000: 94e9 5d3e 5297 b03e 30ce 57b9 7b62 563e
00000010: 3ff8 16be cd0f 243c 6629 b03e 3a56 50bc
00000020: 2201 8a3d 1189 103c

weight f4 [2, 10]
-0.4897527 -0.5182464 0.43407255 -0.61729074 0.47350705 0.62120366 -0.15237395 0.5922641
0.1708273 0.39614266 0.50293225 0.34060287 -0.41517392 0.58378184 -0.44443798 -0.3895737
0.63190806 -0.27320036 -0.6438138 -0.3640152
00000000: dec0 fabe ccab 04bf c23e de3e c406 1ebf
00000010: 846f f23e 3407 1f3f eb07 1cbe 9f9e 173f
00000020: 5aed 2e3e 36d3 ca3e 2bc0 003f 8063 ae3e
00000030: ad91 d4be ba72 153f 608d e3be 3476 c7be
00000040: bac4 213f ebe0 8bbe fbd0 24bf 3360 babe

bias f4 [2]
0.135971 -0.09272165
00000000: fb3b 0b3e d9e4 bdbd
