train/hepatitis/Hepatitis_model_simple.pt (torch, 4823 bytes, 6 tensors)

weight f4 [20, 10]
000000 fb 2b ec be b5 3d 93 3d 51 13 8d 3d 42 12 ad bc
       -0.46127304 0.07189504 0.0688845 -0.02112687
000010 d8 fc bb be 40 f4 9c 3e 3b 5e fd 3e e1 a6 ac 3d
       -0.36716342 0.30655098 0.49485955 0.08430267
000020 d8 b5 2c 3f cc d4 55 3e bb ba 8e be 0b 5a 01 3f
       0.6746497 0.20881957 -0.2787684 0.5052802
000030 9e 83 30 3e 6c c5 2f 3d b2 69 32 bf d0 81 b5 bd
       0.17237708 0.042912886 -0.6969253 -0.088626504
000040 06 2f e2 3e 88 75 62 be c0 8a af 3e af c7 ce 3d
       0.441765 -0.22115147 0.34285545 0.100966804
000050 b1 9b dc 3c d1 89 d8 bd b6 91 bc 3e d4 22 ba 3d
       0.026929708 -0.105731614 0.3682992 0.09088674
000060 b3 d4 43 3e bd 6f ff 3d 1a 0f 97 3d e5 4c f8 be
       0.19124107 0.12472484 0.07375927 -0.48496166
000070 73 d8 a7 be dd 40 38 bd 89 02 00 3f ca 49 17 3f
       -0.32782325 -0.044983733 0.5000387 0.5909697
000080 29 56 70 3e b0 03 c7 3d d5 3c 65 be 51 fa f4 3d
       0.23470367 0.097175 -0.22386487 0.119618066
000090 d6 e7 a9 be 76 ca b6 be 9d 8d f4 3d 85 eb 78 be
       -0.3318469 -0.3570134 0.11941073 -0.24308594
0000a0 f4 c7 b0 be 65 fc 4b 3e b5 1c ee 3c 62 af 25 bd
       -0.34527552 0.199205 0.029066423 -0.04045046
0000b0 02 84 35 3e 3b 3b ad be 5d 80 14 bf 36 5f 2d 3e
       0.17726138 -0.33834252 -0.58008367 0.16930851
0000c0 6f 16 84 3e 75 05 9f 3e fd 0c a6 3e 38 64 dd be
       0.25798365 0.3105885 0.32431784 -0.43240523
0000d0 98 22 54 bf 66 af 92 3e b7 d1 fa bb 58 c2 b0 bd
       -0.82865286 0.28649443 -0.0076543945 -0.08630818
0000e0 cd 39 63 3e c3 0c 12 bf 05 40 25 3d c0 0b ae be
       0.22190018 -0.5705072 0.040344257 -0.3399334
0000f0 ca 42 39 bf 91 97 4b 3e 9a 5e 56 be 8d 8f 32 bf
       -0.7236754 0.19882037 -0.20934525 -0.6975029
000100 eb 17 ac bd 27 a9 c4 3e 5f 12 d0 bc 3c 93 20 be
       -0.084029995 0.38410303 -0.025399385 -0.15681165
000110 1b da be be 71 69 95 3a d0 e9 70 be a0 13 75 be
       -0.37275776 0.0011399222 -0.23526692 -0.23933268
000120 f8 d1 f8 be 0b 89 d2 3e 97 1b 55 3e 85 e1 b1 bd
       -0.48597693 0.4112018 0.20811306 -0.086855926
000130 a1 99 26 be 73 9c 9d be b4 4d 81 3e c9 87 93 3e
       -0.16269542 -0.30783424 0.25254595 0.28814533
000140 a1 7b b5 be 0b 49 8a be 71 36 54 3e 4a 0c a4 3e
       -0.35445884 -0.27008852 0.20723893 0.32040626
000150 9e 0c 48 3e 1e 16 d1 be b8 76 ef be 41 d3 aa be
       0.19536063 -0.40837187 -0.46770263 -0.333643
000160 fa 44 af bd 0c 22 cd 3e 0e d9 93 3e 8a 92 93 be
       -0.08558078 0.40065038 0.28876537 -0.28822738
000170 cb e3 22 bf 45 52 37 bd 4d f9 e0 3e 88 1f d4 3e
       -0.63628834 -0.044756193 0.439402 0.41430306
000180 e2 e3 9b be e6 3e 1e bf 3f 52 a4 3e 36 99 c6 3c
       -0.30447298 -0.61814725 0.32094 0.024242979
000190 d0 95 5b be 92 25 56 bd 68 88 a9 3e 1a db 64 3e
       -0.21443868 -0.052281924 0.33111882 0.22349206
0001a0 cc c9 c7 3e 96 88 13 bd 74 85 44 bc 92 27 b9 be
       0.39021146 -0.03601893 -0.011994708 -0.36163002
0001b0 e0 db 77 bd f6 45 15 3f 3f fb 74 3e 61 a6 ba 3d
       -0.060512424 0.58309877 0.23923968 0.091137655
0001c0 e3 96 1e be ea 86 e8 3e 3f 97 d5 3d 73 a9 a5 3e
       -0.15487246 0.4541543 0.104292385 0.32355842
0001d0 f4 b5 08 3e e7 f0 c7 3d a1 05 27 3d 18 dc 06 bf
       0.1335066 0.09762745 0.040776853 -0.52679586
0001e0 1d 42 00 3f 2b 18 bb 3d b8 f5 9c 3d 50 1f 3b bf
       0.5010088 0.09135469 0.07664055 -0.73094654
0001f0 cf 5c e2 3d 9a ea f9 be 49 ad 2d be eb 79 9b 3d
       0.11052858 -0.488118 -0.16960634 0.075916134
000200 e0 17 83 be e9 ab 8b 3e 6e 84 87 be 50 21 80 3e
       -0.25604153 0.27279595 -0.26468223 0.25025415
000210 1b 1c d9 3d 8a e8 a8 3e 5a 9c 14 3e fe 90 0f 3e
       0.10601064 0.32989913 0.14512768 0.14020154
000220 cd 5c 84 be c8 49 b4 3e c4 44 46 3e 75 4a 4c 3e
       -0.2585205 0.3521254 0.1936217 0.19950278
000230 92 2f aa be 79 b4 4d be 2c 95 c2 3e ce fd 9d be
       -0.33239418 -0.20088376 0.38004434 -0.308577
000240 95 21 62 be b2 35 f9 3c 3b 9f d2 be d7 6c a3 be
       -0.22083123 0.030421112 -0.41137108 -0.31918976
000250 5c d4 d6 3e 7b f1 10 be 3c 25 bc 3d c8 57 13 3e
       0.41958892 -0.14154617 0.091867894 0.14388955
000260 84 99 82 bd 8b 36 5f bf 33 fa 23 be 91 d0 53 bd
       -0.06376937 -0.871926 -0.16013412 -0.051712576
000270 6f 82 db bc 3a 2a 84 3c 56 da 51 be 33 00 02 3c
       -0.026795594 0.016133416 -0.20493445 0.007934618
000280 5f c5 80 be 13 b5 06 be a2 ad bf be af b5 4c be
       -0.25150582 -0.13155012 -0.3743716 -0.19991182
000290 1a ab 1a 3e d0 2f ec be 20 fa 0a bf 50 0a 86 be
       0.15104333 -0.46130228 -0.5428791 -0.26179743
0002a0 05 5a ea be f7 f1 02 be 90 d9 e0 3e ee da 48 3d
       -0.45771804 -0.12787615 0.43915987 0.049036913
0002b0 20 5c e4 3d 4d b9 67 3e 4c ed 53 bf 51 bc bb be
       0.11150384 0.2262928 -0.8278396 -0.36667112
0002c0 5a f0 a2 3e 95 96 41 3e 43 7a 05 be 31 64 03 3e
       0.31824 0.18905099 -0.1303492 0.12831189
0002d0 fc e1 29 be 2c d6 92 be 09 dd 46 bf 98 13 4f 3e
       -0.16590112 -0.28679025 -0.7768102 0.20222318
0002e0 eb 60 15 bd 92 ae 1a 3e aa 4b ec be fa ef 92 3e
       -0.03646938 0.15105656 -0.46151477 0.28698713
0002f0 d6 75 fb 3e 3c ea 29 3e 32 26 0c be 79 79 b0 be
       0.4911334 0.1659326 -0.13686445 -0.34467676
000300 df 84 33 3d 07 09 0d 3f b9 46 c0 3e 3c 9e 53 3d
       0.043827888 0.550919 0.37553957 0.051664576
000310 4f f7 a3 bd 11 6d 8e be 90 b3 5e 3e 7e 13 e7 3e
       -0.08006155 -0.27817586 0.21748185 0.4513206

bias f4 [20]
000000 be 08 d7 3e a2 37 c6 3e cf 41 39 3e 98 43 ae be
       0.41998857 0.3871432 0.1809151 -0.34035945
000010 c0 5c f3 be bc 32 e6 bd 87 da a3 3e b7 68 95 3c
       -0.475317 -0.112401456 0.3200266 0.018238408
000020 50 d1 c7 bd 62 71 2a 3f dc b7 7b bd fb 99 81 3e
       -0.0975672 0.6657926 -0.06145464 0.2531279
000030 d8 22 05 3f 67 ca d0 bd 5f 45 3f 3e 74 ff d6 3e
       0.5200629 -0.10194855 0.18678807 0.4199177
000040 02 e6 97 3e 4b 4b 07 bd b0 93 3e be 16 58 a1 bd
       0.2966767 -0.03303079 -0.18611026 -0.07878129

weight f4 [10, 20]
000000 94 57 a6 3e cb 11 0b 3e 82 b9 0a 3c e3 2c c2 3e
       0.32488692 0.13581006 0.00846708 0.3792487
000010 a0 06 6f be 0e ee f4 be 73 2a c5 3e cf a9 08 be
       -0.23342371 -0.4783787 0.3850895 -0.13346027
000020 b3 9b 0b 3e 7b 91 2e 3e ed c9 f3 be a0 60 10 be
       0.13633613 0.17047684 -0.47614995 -0.1409936
000030 a6 c0 e3 3e 8d 51 6c be c4 3d 5c 3d 9e 4c 40 3e
       0.44482917 -0.23077984 0.05376984 0.18779227
000040 18 8c 3c 3e 9a e2 fe 3e f7 4d 47 be 52 27 e2 be
       0.18412817 0.49782258 -0.19463335 -0.44170624
000050 4a 10 e8 bd 5e 5f 8e 3a 90 7c 95 3e d3 90 c6 bd
       -0.11331232 0.0010862162 0.29196596 -0.09695592
000060 f7 be da 3e 1b c0 c6 3e 6d 8e c8 bd bf 9f ad 3e
       0.4272382 0.3881844 -0.097927906 0.3391094
000070 88 bf a1 3e d9 dc 95 3e 54 8b ef 3e 6e f2 69 3e
       0.3159144 0.29270056 0.46785986 0.22846386
000080 8c 53 a4 be 1b d0 bf 3d a5 a3 67 3e ba db ff bd
       -0.3209499 0.09365865 0.22621019 -0.124930814
000090 5d 26 43 3e ec 85 97 be d3 eb fa 3e 9a 58 15 bb
       0.19057603 -0.29594362 0.49008045 -0.0022788406
0000a0 64 5d 7d 3e 3b 30 76 3e bf 23 2b be a0 e4 a7 3e
       0.24742657 0.24041836 -0.16712855 0.32791615
0000b0 ee 8c 48 be f5 c5 fc be 27 25 11 3f 35 28 ac be
       -0.1958501 -0.4936978 0.56697315 -0.33624426
0000c0 ac 98 7b be df b6 23 3e b4 ce a9 be e0 86 28 be
       -0.24569958 0.15987729 -0.33165514 -0.164577
0000d0 74 0f fb 3e 57 aa 86 be 94 49 98 3e 73 6f bf 3e
       0.49035227 -0.26301834 0.29743636 0.37389717
0000e0 2b 16 8f 3e fd 85 c9 3e 3a 09 54 be af ab 56 be
       0.279466 0.39360037 -0.20706645 -0.2096393
0000f0 cd ca 14 3e 96 c8 e6 bd c0 69 90 3c c4 9a 75 3e
       0.14530487 -0.112687275 0.01762855 0.2398482
000100 e0 f0 c6 be 83 45 37 be 15 b4 90 3e fe 1e 92 be
       -0.38855648 -0.1789761 0.28262392 -0.2853927
000110 09 ca 52 be 6d 7c e1 3d df 6c 01 be 90 c4 53 be
       -0.20584883 0.110100605 -0.12639187 -0.20680451
000120 9b 9a de 3e c7 33 06 3e 47 a6 88 3e 98 22 7c 3e
       0.4347733 0.13105689 0.2668936 0.24622571
000130 8c 28 bb 3e 0e 5a 94 3e 1b f8 ad be f5 0f 85 be
       0.36554372 0.28974956 -0.33978352 -0.25988737
000140 e6 f9 85 bd 4c 2f 31 3e f2 25 02 be 75 96 27 be
       -0.06541805 0.17303199 -0.12709787 -0.16365989
000150 d2 44 c1 3d 2b 7d 42 be 5e 27 05 be 09 c6 03 be
       0.094369546 -0.1899306 -0.13003299 -0.12868513
000160 16 c0 3b bd 4e e2 8a bd 6f d2 8c bd 73 31 54 be
       -0.045837484 -0.067814454 -0.068760745 -0.20721988
000170 b8 62 1d be 03 be 38 be f8 ca d0 3b c2 f6 86 bd
       -0.1536969 -0.18041234 0.006371852 -0.06590034
000180 98 58 57 be ba 34 a0 bb 2a bb 0c 3d 5a aa 4d be
       -0.2102989 -0.004889098 0.03435818 -0.20084515
000190 11 41 c7 3d a1 07 8c 3e 66 07 cb bd 81 79 ad 3e
       0.09729207 0.2734957 -0.099135205 0.33881763
0001a0 00 6d 8e be 0e ae 44 be d4 41 c2 3e a0 07 ef bd
       -0.27817535 -0.19207022 0.37940848 -0.11671376
0001b0 19 6d ce 3c fa ed 96 3b 07 21 1f be 12 ea 7e be
       0.025198506 0.0046060057 -0.15539943 -0.24893978
0001c0 28 ba 80 3e 02 7e 0b 3c 52 75 a8 3d cc af f8 3e
       0.25142026 0.008513929 0.08225502 0.48571622
0001d0 4d ea 29 3e e2 9d a4 3e 31 af c8 bd 78 e0 af be
       0.16593285 0.32151705 -0.0979904 -0.34350944
0001e0 54 4d 29 3e 95 a9 a0 3e cb 60 08 be 4a 0c 85 3d
       0.16533405 0.3137938 -0.13318174 0.064964846
0001f0 b9 7e 53 be fe 65 bf be 6e 8b 19 3f e4 c1 a8 be
       -0.2065381 -0.373825 0.5997838 -0.32960427
000200 67 8c 4b be 60 6f 0b 3e 68 2c 7c be cc 83 1c be
       -0.19877778 0.13616705 -0.24626315 -0.15284652
000210 23 32 b0 3e e8 2e 9e bd a6 54 35 3e 07 32 93 3d
       0.3441325 -0.077237904 0.17708072 0.07187276
000220 4d 96 a3 3e 3b f0 ef 3e 6f c8 99 be 45 16 9a be
       0.31950608 0.4686297 -0.3003573 -0.30095115
000230 18 41 95 3e 54 b1 00 bd 14 dd 5c 3e cb ff 2d 3e
       0.29151225 -0.031419113 0.2156871 0.16992109
000240 a9 4a e9 3e d7 92 b6 3e 96 06 f4 be 6d 05 a5 3e
       0.45564774 0.35658905 -0.47661275 0.32230702
000250 5d 2b 93 3e e7 b4 96 3e 91 72 aa 3e 88 10 c6 3e
       0.2874402 0.29434893 0.33290532 0.38684487
000260 60 d2 6d be 67 74 87 3e 0f f6 26 3e e0 46 48 be
       -0.23224783 0.26455995 0.16304801 -0.19558287
000270 7d cc 04 3e 41 2d ad bd a5 f2 5d 3e 40 2b bf 3e
       0.12968631 -0.08455897 0.21674593 0.37337685
000280 b1 b5 a9 3e a2 41 11 3e cc 84 4e 3b 20 46 e4 3e
       0.33146432 0.14185193 0.0031512259 0.4458475
000290 32 e2 72 be bb 9b 3b be c5 d0 24 3f c3 b4 98 be
       -0.23719099 -0.18321125 0.6438106 -0.2982541
0002a0 0e 5c 07 be 91 b4 a9 bc 5f 68 50 be c8 bf ac be
       -0.1321871 -0.020715984 -0.20352314 -0.33740067
0002b0 62 15 0b 3f ca 9c 2a be d3 f5 79 3e b9 82 1f 3f
       0.543295 -0.16661373 0.24410181 0.6230884
0002c0 7b af e2 3e a7 6d 46 3e 5a 2b 41 be 0b 72 06 bf
       0.44274506 0.19377767 -0.18864194 -0.52517766
0002d0 ae 5b 9e 3e 38 2c 04 3e f5 be bf 3d ef 2e e3 bd
       0.3092932 0.12907493 0.09362594 -0.11092936
0002e0 d9 c4 11 3f ee 90 08 3f 23 58 1e bf a2 72 c7 3e
       0.5694099 0.53346145 -0.61853236 0.38954645
0002f0 b9 c7 d8 3c 01 33 c9 3e 05 a4 05 3f c0 5b 06 3e
       0.026462423 0.39296725 0.522034 0.13120937
000300 7a e8 0f bd 12 d6 cf 3e c8 a4 71 3c 51 58 a0 be
       -0.035133816 0.4059301 0.01474876 -0.3131738
000310 29 56 2a 3e 10 62 09 bf f5 32 98 3e c1 3d 81 3e
       0.1663443 -0.53665257 0.29726377 0.25242427

bias f4 [10]
000000 1a f8 8d 3e 2d 59 75 3e e6 b6 95 3e 6a de f1 3d
       0.2772835 0.23959799 0.29241103 0.1181
000010 df 7e 14 be da b8 61 3e 7d 21 c6 3e d7 be 9e 3d
       -0.14501522 0.22043172 0.38697425 0.077512436
000020 67 9b 2f 3e c4 4a 36 3d
       0.17149125 0.044504896

weight f4 [2, 10]
000000 0e 4f 49 bf 6c 55 fa 3e 74 87 f0 be d5 7d 42 bf
       -0.7863625 0.48893297 -0.46978343 -0.75973254
000010 d2 3f 1c 3e 7e c5 f2 bd 0b 11 9d be af 42 ce 3e
       0.1525872 -0.11854075 -0.30677065 0.4028525
000020 57 8a 57 bf 99 1a 26 3c 28 7b 4a 3f 79 9f 8a be
       -0.84195465 0.010138177 0.7909417 -0.27074793
000030 0e e3 06 3f cc dd 54 3f 31 ab ac bd 4e 0b 03 3f
       0.5269021 0.83150935 -0.0843109 0.51189125
000040 94 ff 1f 3f db 94 34 be be 66 01 3f 23 59 17 bf
       0.62499356 -0.17634909 0.505474 -0.59120387

bias f4 [2]
000000 8e a4 fc 3d e4 d1 92 3e
       0.12336074 0.2867576
