train/synthetic/synthetic_model_simple_v1.pt (torch, 5783 bytes, 6 tensors)

weight f4 [25, 4]
00000000: b0fd 8cbe 0795 62bc 0782 b041 ca2c 8cbd
00000010: ab8b 2bbd f688 d7bd ec51 abbc 1ed9 94bc
00000020: e42e 42be b32e c93b c77c 02bf f77a 03bb
00000030: 3d3a 92ba 467b 863d 0204 b5be c21f ed3d
00000040: 8677 a03c 03a7 97bc 88a4 04be efb0 6a3c
00000050: 81b0 583f 74c4 d6bd 9b74 773f 68d8 ed3f
00000060: e5c6 3cbe 2154 abbe 30e5 f1be 82fa 023e
00000070: b55f 42c0 78cf 94bd cb72 5abe 3ccc 36c0
00000080: bef9 29bd 749b dfbc f30c a9bc f8aa 09bd
00000090: b4c6 1741 dda0 42bc bd4c 8a3d cd7c 35bd
000000a0: 5122 30be 8239 2041 4245 523e 13aa e4be
000000b0: e02b 33c0 04bd 5ec0 33b3 d7bd 3d8b 01c0
000000c0: 2c98 a9bc 5143 cc3d 84c5 833c a93c c5bd
000000d0: 7674 2841 2931 1bbe 40ef d93d 0b29 0ebe
000000e0: b745 be3c 92d4 3bbe 7c86 883e a8c8 89bc
000000f0: 9ebb 2041 21e4 013e 6da3 0a3e b8ef 613d
00000100: 466e 9dbf b438 42bf 3c30 99be f9a2 31bd
00000110: 5211 a13d 62dd b23c c0d1 493d 22a5 ea3c
00000120: 5909 1cbe a0dc d83d 6bf2 b93b ef2b 0641
00000130: 1151 b9bd 0605 96bd 4c45 84bd 8f4b 4c3d
00000140: ff05 a43e f2ad 08bf 6c21 c9ba c068 003f
00000150: 48ed f740 c8d4 4f3e c2cd 65bf 7ca8 71bf
00000160: 8cb7 e33f d274 b33f 7b1c 5dbe 8d4f 3c3e
00000170: d1d1 9ebd 6b6d 2541 a276 0ebe 89b6 123e
00000180: 1952 b83c e80c 97bd 3c34 fdbc f828 a4bc
-0.27537298 -0.013829476 22.06349 -0.0684448 -0.041881245 -0.1052417 -0.020913087 -0.018169936
-0.189632 0.0061396 -0.50971645 -0.0020062306 -0.0011156272 0.06566481 -0.3535462 0.11578323
0.019588243 -0.018512255 -0.12953389 0.014324411 0.84644324 -0.10486689 0.966623 1.8581667
-0.18435247 -0.33462623 -0.4724517 0.12790874 -3.0370915 -0.07266134 -0.21332853 -2.8562155
-0.04149794 -0.027295806 -0.020636057 -0.033610314 9.4860115 -0.011879173 0.06752918 -0.044308472
-0.1720059 10.01404 0.20534232 -0.44661006 -2.799553 -3.4802866 -0.105322264 -2.0241234
-0.020702444 0.09973777 0.016085394 -0.09630711 10.528433 -0.15155472 0.106413364 -0.13882844
0.023226602 -0.18342808 0.26665103 -0.016819313 10.045805 0.1268468 0.13538904 0.055160254
-1.2299278 -0.7586777 -0.29919612 -0.043368313 0.07864632 0.02183408 0.0492723 0.028643195
-0.15237941 0.10588956 0.0056746504 8.385726 -0.09048665 -0.07325177 -0.0645853 0.049876746
0.32035825 -0.5339042 -0.0015345044 0.50159836 7.747715 0.20296013 -0.89767087 -0.9439771
1.7790389 1.4020026 -0.21592896 0.18389721 -0.07754863 10.339213 -0.13912442 0.14327444
0.022500085 -0.073755085 -0.030908696 -0.020039067

bias f4 [25]
00000000: 5e25 1b3f 53e3 b4bf 8123 18c0 35dc b3bf
00000010: 8a13 31bf 038a 99c0 01a9 32c0 9a24 cbbf
00000020: be62 60be 90dd 8ec0 6af6 67c0 a3b1 93c0
00000030: cd5b 37bf dadb 98c0 4c9a c1bf d876 92c0
00000040: 5900 61c0 a397 30bf 73aa 71c0 ed21 0ebf
00000050: 694c 41c0 22ff b2c0 0521 5bc0 b19b 51c0
00000060: d26f 10c0
0.6060389 -1.4131874 -2.377167 -1.4051577 -0.6917044 -4.798097 -2.7915652 -1.5870545
-0.21912667 -4.464546 -3.624415 -4.615434 -0.7162445 -4.7768373 -1.5125213 -4.5770073
-3.5156462 -0.6898138 -3.7760284 -0.55520517 -3.0202887 -5.593644 -3.4238904 -3.2751276
-2.256825

weight f4 [20, 25]
00000000: 5070 09be 59b6 35be 33bc 623f a8be cbbe
00000010: 7940 9c3e ecdb 7640 9f0a ae3d 636b 6ec0
00000020: d99f 3bbe 9348 4b40 1ce6 10be 5eda 5d3f
00000030: c266 113f efd6 9940 275b 783e b2ba 4e40
00000040: 14e2 e83e 369c 9b3e f5a2 25bd 74ff 8b3d
00000050: 6689 873e b056 f83e df96 bf3f f09d ffbd
00000060: 2216 9f3f 3bce cfbe 0d1b 2c3e 60e4 d03c
00000070: 3c43 2dbf f580 b23e fb86 1e40 5232 033f
00000080: 3eef ddbc f7a0 0dbe adcd f43f 15a2 35bf
00000090: 1a4e 0f3f 6695 883e ac51 3b40 708c 1bbe
000000a0: a757 4840 a6a6 38c0 1be8 2bbe 6d11 ec3c
000000b0: ed7b 44be ed51 533d 0164 9c3f bb83 0b40
000000c0: 9e67 29be ed9a 863c 3ee9 83bd 8465 62be
000000d0: bd8a 10be 091a 91bd ec4e 533c 67d6 a7be
000000e0: 19a3 36be bfd4 3dbf 3199 79be c000 b9bd
000000f0: f944 10bf adb4 abbd dd1c 593e 853d 35bf
00000100: 3fde 2bbe c816 2e3e 757f 33bc 1a47 ae3d
00000110: 2ce8 9cbe c484 78be e89c d5be 1cea 17bc
00000120: 7ffb 02bf f46f efbe 7fb4 14be 2537 a0bd
00000130: f3d6 b13c 2241 2c3e 7f5e a3bc 7844 873d
00000140: cd16 dbbc 005b 0fbe 3d47 bebb 7907 62be
00000150: 7419 bfbe 28ca 88be 068d 91be 49bb 25be
00000160: fb97 98be ab52 64bd f945 f7be b84e 1cbd
00000170: 8209 943d 7c77 9bbe ac62 a73d 4482 56bb
00000180: 3159 e4be 4075 f2be 8f7f b0be 1b9e 203e
00000190: 799a 48c1 d335 2ebe 44b2 abbd 4768 14bd
000001a0: 9840 32bd e6be 3d40 d1d6 64be 5953 083f
000001b0: 4fa1 5fbd 9e81 23bf d42c c33c b923 943e
000001c0: 042b 4c3d 5b57 dec0 e9be 713e 4ea8 efc0
000001d0: d585 1f3e a430 71bd ae9c 31c1 cf11 113e
000001e0: 7f27 1740 4b78 d4c0 e081 7c3e 2d73 51bc
000001f0: 191e 5ebe e0aa 49bf 4b1f f0bd d4c6 3bbe
00000200: ae65 1f3e c81a e53d 7aa7 b3bd 1f3e 8dbd
00000210: 85cd c2bf ba88 93be 28c1 bebf b90a 87be
00000220: 6ed8 17c0 475c 053e 3478 ddbf add6 1e38
00000230: 8d53 f43e 56c0 bebe b0cd 9b3d e128 2dc0
00000240: 11aa 84be 3576 103b c610 a8be 4e1a 93bf
00000250: d296 57be 827c 97be 9bfb 8e3d 8fcf 46bd
00000260: 26cc ccbe 96f5 81bf 6d37 18bd 4055 2b40
00000270: 2ae8 dbbe aec7 b03e 3f93 91bd 8805 1ec0
00000280: befb 01c1 54b7 693f d960 033e 44a5 10c1
00000290: 1351 04be eec6 a0c0 e110 cf3d dd5e 243e
000002a0: 6ffc 37bd 2333 3abe ee80 113f 212d 7ac0
000002b0: 9abb d53e 0099 dec0 d1a5 a83e 2e0f 0ebf
000002c0: 07f5 58be 9b44 63bc 9610 41be 3e84 98be
000002d0: 1799 8d3d 166c 31bf ac9f 2bbf 077a ab3d
000002e0: 15d0 1abf be90 0dbe 59ba 2f3d e3a2 3abe
000002f0: e2b2 fdbe 0d1e 6abe 4447 c6be 8d32 a039
00000300: 0dff d73d 1cda 06be 983d 7bbe a524 5abe
00000310: 0879 6abf 8afb 9bbe fad9 193d fca1 12be
00000320: f699 c1bf 050e be3e c767 06be 34ac 46bf
00000330: fd2e 833d 3e94 de3d 250e fbbd af46 703f
00000340: c045 f03c 3d3e 6ec0 5d1e 0bc1 dde0 203f
00000350: 2b5f 043e 7575 89c0 ef65 80be 8138 4fc0
00000360: 611b 83bc b155 073d 0793 dabf 2e8c 513c
00000370: 3aed 8440 62d9 4fc0 835d 913f 7190 3b3f
00000380: 1406 e83e 7fde c5be d96c 143b f2b5 ba3d
00000390: a7c5 63be 33fc 08be 068e 89be 59b8 11be
000003a0: e701 b5be a151 4abc adf4 4ebe 774b 1ec0
000003b0: 4f8c 75bf 0331 863e 6abd 11c0 5235 a6be
000003c0: 78d6 01c0 fa6b a6bf 7d51 693d ad55 aebe
000003d0: fe23 013e 8b01 b8bd 9f4b 06c0 2fac 16bf
000003e0: 7ba2 19c0 6616 023d 4c7c 3cbf fce3 9b3e
000003f0: cb2c 903d 03b2 053f f348 f7bd 1c91 e3be
-0.1342175 -0.17745341 0.8856842 -0.39793897 0.3051794 3.857173 0.084981196 -3.7253044
-0.18322696 3.1763046 -0.1415028 0.86661327 0.5679742 4.807487 0.24253522 3.230145
0.45484984 0.30392617 -0.04043861 0.06835833 0.26472014 0.48503637 1.4967917 -0.12481296
1.2428629 -0.4058703 0.16807194 0.025499523 -0.67680717 0.3486401 2.4769886 0.5124866
-0.027091619 -0.13830934 1.9125267 -0.7095044 0.5597855 0.26676482 2.9268599 -0.15190291
3.1303499 -2.8851714 -0.1678776 0.028816903 -0.19187899 0.051591802 1.2218019 2.1799152
-0.16543433 0.016431296 -0.06440972 -0.22109038 -0.14115424 -0.07085044 0.012897234 -0.32780764
-0.17835654 -0.7415275 -0.24374844 -0.09033346 -0.56355244 -0.083840705 0.21202417 -0.70796996
-0.16783999 0.17000878 -0.010955681 0.08509655 -0.30645883 -0.24269396 -0.41721272 -0.009272125
-0.51165 -0.467651 -0.14521979 -0.07823018 0.021708941 0.16821721 -0.01994252 0.06604856
-0.02674427 -0.13999557 -0.005806832 -0.22073163 -0.37324107 -0.26716733 -0.28427905 -0.16184725
-0.29803452 -0.0557429 -0.48295572 -0.03816101 0.07228376 -0.30364597 0.08173117 -0.0032731453
-0.44599298 -0.4735508 -0.3447232 0.15685312 -12.537713 -0.1701272 -0.08383611 -0.03623226
-0.043518633 2.9647765 -0.22347571 0.5325218 -0.054597195 -0.63869655 0.023825087 0.28933504
0.04984571 -6.9481635 0.23607983 -7.489295 0.15578397 -0.058884278 -11.100752 0.1416695
2.3617857 -6.639684 0.24658918 -0.012783808 -0.21691169 -0.7877636 -0.11724719 -0.18337566
0.15566131 0.11186749 -0.08772178 -0.06896614 -1.521897 -0.28815252 -1.4902697 -0.26375368
-2.3725848 0.13023482 -1.7302308 3.7870068e-05 0.47719994 -0.37256116 0.07607591 -2.70562
-0.25911 0.0022043113 -0.32825297 -1.1492403 -0.21053627 -0.2958718 0.06981584 -0.048537787
-0.39999503 -1.0153072 -0.037162233 2.6770782 -0.42950565 0.34527344 -0.07108163 -2.4690876
-8.1239605 0.9129536 0.12829913 -9.040348 -0.12921552 -5.0242834 0.10110641 0.16051812
-0.044918474 -0.1818357 0.56837356 -3.9090044 0.4174469 -6.9561768 0.32939008 -0.5549191
-0.2118722 -0.013871337 -0.18853983 -0.29788393 0.06913965 -0.6930555 -0.67040515 0.08372884
-0.6047376 -0.13824746 0.042902324 -0.18226199 -0.4955054 -0.22863026 -0.38726246 0.0003055524
0.10546694 -0.1316914 -0.24535215 -0.21303041 -0.9159093 -0.30465347 0.037561394 -0.14319605
-1.512511 0.3712007 -0.13125525 -0.7760651 0.06405447 0.10868119 -0.12258557 0.93857855
0.029330134 -3.7225487 -8.694913 0.62843114 0.12926929 -4.295588 -0.2507777 -3.2378237
-0.016004266 0.033040706 -1.7076119 0.012789769 4.1539583 -3.247643 1.1356663 0.73267275
0.45317137 -0.38646314 0.0022647886 0.091167346 -0.22243367 -0.13377456 -0.26866168 -0.1423048
-0.35353014 -0.012348563 -0.20210524 -2.473356 -0.9591722 0.26209268 -2.277186 -0.32462555
-2.0287151 -1.3001702 0.05696248 -0.3404974 0.12611386 -0.08984669 -2.0983655 -0.5885648
-2.400542 0.031759642 -0.7362716 0.30447376 0.070397936 0.5222475 -0.12074461 -0.44446647

bias f4 [20]
00000000: 2848 27c1 f46e 2ec1 6c11 edbe d909 76b8
00000010: a3d0 8640 a653 62bf 9bf2 4f41 5529 57bf
00000020: fdf7 083f 3413 b83d f289 85c0 03a1 1f3e
00000030: bb85 20bf 5d31 57bf 64f1 bac0 1fea 2c41
00000040: ed68 1bc0 056a e73d d464 44bf 852c 97bf
-10.455116 -10.902088 -0.46302354 -5.866014e-05 4.2129683 -0.8840889 12.99673 -0.8404744
0.535034 0.08988038 -4.173089 0.15588765 -0.62704057 -0.840597 -5.8419666 10.807158
-2.4282792 0.112995185 -0.7671635 -1.1810461

weight f4 [2, 20]
00000000: ed0f 0dbd 18c8 15bf 009a 9c3e 35c4 83bc
00000010: acab 883e 553b 70be 6997 e83e ad4f 39be
00000020: d59f f4be c26b ddbd 3f8d 183f 6909 bdbe
00000030: c20b 9c3d e230 58be 8171 01be a4cb 203f
00000040: 05ab 183c c177 e03d dfdb 7abe 171e 00bf
00000050: 31c9 323e 88ee 183f 59ba f6be 9193 d63d
00000060: 7a2a 40be 9083 343e 628b 2dbf 2643 fe3e
00000070: 6061 1e3f de0f d73e 95dd 30bf c15b 833e
00000080: e198 633d 37b6 0bbe 362d f53d 9b13 0dbf
00000090: fb3d d2be ba5e 5b3e 17b3 8f3e 3749 f33e
-0.034439016 -0.58508444 0.30586243 -0.01608477 0.26693475 -0.23460133 0.45428017 -0.180968
-0.47778192 -0.10811569 0.59590524 -0.36921242 0.0761943 -0.21112397 -0.12640955 0.6281073
0.009318118 0.10960341 -0.24497937 -0.50045913 0.17459561 0.5973897 -0.48189047 0.10477365
-0.18766204 0.17628312 -0.67790806 0.49660605 0.6186733 0.42004293 -0.6908811 0.2565594
0.05556572 -0.13643728 0.11971514 -0.5510804 -0.41062912 0.21422854 0.28066322 0.47516796

bias f4 [2]
00000000: e898 35c0 ca12 4140
-2.8374577 3.0167718
