train/synthetic/synthetic_model_simple.pt (torch, 5207 bytes, 6 tensors)

weight f4 [20, 4]
0	0x41133d12	9.20241
1	0xbfc39a8e	-1.5281541
2	0x3eb7d971	0.35908082
3	0xbe606b00	-0.21915817
4	0x3d5526bb	0.05203889
5	0x3dbd6834	0.09248391
6	0x3d034072	0.03204388
7	0xbe7b6779	-0.2455119
8	0x412b9cda	10.725794
9	0x3c97578c	0.018474363
10	0x3cafbe7e	0.021453138
11	0x3d7111fc	0.05885504
12	0xbf035f39	-0.51317173
13	0xbe7e4f7a	-0.24835005
14	0xbe49443f	-0.1965494
15	0x3d94ae73	0.07259836
16	0xbdd2c2ca	-0.10291059
17	0xbf013098	-0.50464773
18	0xbd09701a	-0.033554174
19	0xbe0f7fee	-0.14013645
20	0x41121fef	9.132796
21	0xbfcdfddf	-1.60931
22	0x3f53f30a	0.82792723
23	0x3e2aa855	0.16665776
24	0x3fbee10d	1.491243
25	0xbfb937ad	-1.4470116
26	0x3f9124ad	1.1339318
27	0xc028750f	-2.6321447
28	0x3efccaaa	0.4937337
29	0xbe72ed1e	-0.23723266
30	0x3ebc3a90	0.3676343
31	0xbef0ead5	-0.47054163
32	0x3ceac80d	0.028659845
33	0xbd5012a0	-0.050799012
34	0x41715aad	15.084638
35	0x3cd625d9	0.026141094
36	0x3f0700a7	0.5273537
37	0xc0d2cc89	-6.5874677
38	0x3f2be68c	0.6714866
39	0x3f8bcf23	1.0922588
40	0xbd2fa770	-0.04288429
41	0xbae3f96c	-0.0017393059
42	0x3c18fdf4	0.009337891
43	0xbc9d7a8d	-0.019223476
44	0xbec97eb3	-0.39354476
45	0xbf03f56b	-0.51546353
46	0xbd747fab	-0.059692066
47	0xbd0cb6e7	-0.034354117
48	0xbf425be4	-0.75921464
49	0xc02ad091	-2.66898
50	0xbe485553	-0.19563799
51	0xbf81a51c	-1.0128512
52	0xbe0fa105	-0.14026268
53	0x3e63fa8c	0.22263545
54	0x3d9d749d	0.07688258
55	0x4104103f	8.253966
56	0x401ace93	2.4188583
57	0xbe8b4662	-0.27202135
58	0xbf32c02e	-0.6982449
59	0xbf7e2f85	-0.9929126
60	0x3eb92a85	0.36165252
61	0xbeced3df	-0.4039602
62	0xbe952c9b	-0.29135594
63	0xbea57939	-0.32319048
64	0x3ea3404c	0.31884992
65	0xbe885e38	-0.26634383
66	0x3cb2345b	0.02175348
67	0xbe256dfe	-0.1615524
68	0xbe5707b0	-0.20999026
69	0x3d07b30b	0.033129733
70	0xbd7154d5	-0.058918793
71	0xbbc9fc22	-0.00616409
72	0x41149c8a	9.288218
73	0x3e486821	0.19570972
74	0xbf56e1b9	-0.83938175
75	0xbe365cfb	-0.17808907
76	0x3d92a722	0.07160784
77	0x4138e985	11.557012
78	0xbcf271ee	-0.029595342
79	0xbd4d35d0	-0.050100148

bias f4 [20]
0	0xc066eb80	-3.6081238
1	0xbf87c0ed	-1.0605751
2	0xc09b4e2f	-4.853294
3	0xc00eb174	-2.2295809
4	0xc04cb925	-3.1988003
5	0xc094c627	-4.6491885
6	0xbef17141	-0.47156718
7	0xc00ee217	-2.2325494
8	0x3f58fe5e	0.84763134
9	0x4041e089	3.0293295
10	0xbf0642f0	-0.5244589
11	0xbff7aa39	-1.9348823
12	0xc0939144	-4.6114826
13	0xc0634843	-3.5512855
14	0xc0b1cedc	-5.5565014
15	0xc0168b28	-2.3522434
16	0xbfd9216a	-1.6963322
17	0xbf78d9ce	-0.97207344
18	0xc0913fe1	-4.5390477
19	0xc07fd8f4	-3.9976168

weight f4 [20, 20]
0	0x405ee40f	3.4826696
1	0xbea543fa	-0.32278425
2	0x410495c3	8.286563
3	0x3edc1a70	0.4298892
4	0xbf922149	-1.1416408
5	0x40615b03	3.52118
6	0xc042fea1	-3.0467913
7	0x3fbcf09a	1.4760926
8	0xbf140625	-0.57821876
9	0xbfe9738b	-1.8238386
10	0x3e35ae87	0.17742358
11	0x3e1ba4ec	0.15199631
12	0x40bf6094	5.9805393
13	0xbe624258	-0.2209562
14	0x3e4713dd	0.19441171
15	0x3f61d4d1	0.8821536
16	0x3c41f158	0.011837326
17	0x3e1bd6bb	0.15218632
18	0x405db8d3	3.4644058
19	0x3dd8b2e4	0.10580996
20	0xc03c69f2	-2.9439664
21	0xbe3c9761	-0.18417121
22	0xc0d7d985	-6.7453027
23	0x3f8470f3	1.0346969
24	0xbf0a0190	-0.53908634
25	0xc094a78d	-4.645453
26	0xbec3ae44	-0.38218892
27	0xbe5ed654	-0.21761447
28	0xbf01b2e3	-0.50663584
29	0x3dcbdd2d	0.09954295
30	0x3da53b57	0.08067959
31	0xbe909ed6	-0.28246182
32	0x3f8a1dd6	1.0790355
33	0xbf4ff0d7	-0.8122687
34	0xbfa2c09c	-1.271503
35	0x3e05ec4c	0.13078421
36	0xbe6fe6fd	-0.23427959
37	0xbe773522	-0.24141362
38	0xc0140136	-2.312574
39	0xc0ca3bad	-6.3197846
40	0xbfe57712	-1.7926962
41	0xbe1bdc2a	-0.15220705
42	0xc0493a75	-3.144193
43	0xbf715e8e	-0.94284904
44	0xbee42f18	-0.4456718
45	0xc03ebf36	-2.9804206
46	0xbea9d0bc	-0.33167064
47	0x3e06d385	0.13166626
48	0xbf729369	-0.9475618
49	0x3e046518	0.12929189
50	0xbcff9f41	-0.031203868
51	0xbf012999	-0.504541
52	0xbf4a24f1	-0.7896262
53	0xbf1b9361	-0.6077176
54	0xbff9bc5f	-1.9510611
55	0x3d4ca841	0.049965147
56	0x3e2e701e	0.17034957
57	0x3e958545	0.2920324
58	0xbf786753	-0.9703266
59	0xbfb12286	-1.3838661
60	0xc03c3950	-2.940998
61	0x3e4ae9be	0.19815728
62	0xc0e65f71	-7.1991506
63	0x3ed942a6	0.4243366
64	0x3e7ec216	0.24878725
65	0xc05f0e46	-3.4852462
66	0xbf7abaa5	-0.97941047
67	0xbecaac6e	-0.39584678
68	0xbf303bda	-0.68841326
69	0xbdfbbe54	-0.122921616
70	0xbe41c75d	-0.18923707
71	0xbf420b65	-0.75798637
72	0x4011d5a5	2.2786648
73	0xbedbc2d2	-0.42922074
74	0xbf4aca00	-0.7921448
75	0x3ec4c351	0.38430265
76	0xbf0a22e2	-0.53959477
77	0xbece7639	-0.40324572
78	0xc0589d50	-3.3846016
79	0xc0ddf8cd	-6.936621
80	0xc00bb622	-2.1829915
81	0xbe0cf84f	-0.13766597
82	0xc16c5a1b	-14.771998
83	0xbf03a062	-0.514166
84	0x3dcf9b4c	0.101370424
85	0xc079e98d	-3.9048798
86	0x3d3cca93	0.046091627
87	0x3eda95b1	0.4269233
88	0x3e158eba	0.14605227
89	0x3fc0e393	1.506945
90	0xbe6be2dc	-0.23035759
91	0xbe57e09a	-0.21081772
92	0x3f16850b	0.5879676
93	0x3db1e4d1	0.086862214
94	0xbfb5652d	-1.4171501
95	0xbe817aa6	-0.25288886
96	0xbe30d056	-0.17266974
97	0x3eadf35b	0.33974728
98	0xc042d7b7	-3.0444162
99	0xc1670ca6	-14.440588
100	0xbfb4f01f	-1.4135779
101	0xbea115d7	-0.31461975
102	0xbfdfa03e	-1.7470777
103	0xbe3bbf80	-0.1833477
104	0xbe4035ed	-0.18770571
105	0xbf7dcc8d	-0.99140245
106	0xbe522f06	-0.2052575
107	0xbdb3087c	-0.08741853
108	0xbfe0b3e9	-1.7554904
109	0x3d81f50a	0.063455656
110	0x3db608e0	0.088884115
111	0xbf126ff0	-0.57202053
112	0xbd40aa28	-0.047037274
113	0xc01eaa36	-2.4791389
114	0xbff875ae	-1.9410913
115	0x3d4222f0	0.0473966
116	0x3e1e2d80	0.15447044
117	0xbcadf477	-0.021234734
118	0xbf5861cb	-0.8452422
119	0x3c0f9256	0.008762917
120	0x3f4f201f	0.8090839
121	0x3eeca011	0.4621587
122	0xbe928e7f	-0.2862434
123	0xbe1c3638	-0.15255058
124	0xbf2761ff	-0.65383905
125	0x3db687f8	0.08912653
126	0xbfa2c5ad	-1.2716576
127	0xbf33401b	-0.7001969
128	0xbe35ec83	-0.17766003
129	0xbf8aff39	-1.0859138
130	0xbce12d1b	-0.027487328
131	0xbea602d6	-0.3242404
132	0xbd879835	-0.06620828
133	0xbfa8ab45	-1.3177267
134	0xbfa56754	-1.2922158
135	0x3e1151d5	0.14191373
136	0x3e1254d3	0.1429017
137	0xbe9b0232	-0.30275112
138	0xbead5933	-0.33857116
139	0xbed93a98	-0.42427516
140	0xbc214d3e	-0.009845076
141	0xbe15f137	-0.14642797
142	0xbe9926d9	-0.2991245
143	0xbd865640	-0.0655942
144	0xbe3636b6	-0.17794308
145	0x3e3d66b4	0.1849621
146	0xbf13a77d	-0.5767744
147	0xbd23d46b	-0.0399975
148	0xbf2b5123	-0.6692068
149	0xbf2a7d01	-0.6659699
150	0xbd8544b9	-0.065072484
151	0xbe8384a0	-0.25687122
152	0xbf08271c	-0.53184676
153	0xbe29a911	-0.165684
154	0xbe817d33	-0.25290832
155	0x3e16860e	0.14699575
156	0xbcc65b5d	-0.024213487
157	0xbd8f7c2b	-0.07006105
158	0x3b951299	0.004549336
159	0x3c024847	0.007951803
160	0xbec5ccb4	-0.3863274
161	0xbe3f2f62	-0.18670419
162	0xbcc105df	-0.02356237
163	0x3d51b541	0.051198248
164	0xbea1c5c8	-0.31596208
165	0x3d15da8f	0.036585387
166	0xbe9740ec	-0.2954172
167	0x3e0aad92	0.13542774
168	0xbd71dc7e	-0.05904817
169	0xbdbdfdea	-0.09276946
170	0xbe46842a	-0.19386354
171	0xbea0d4a5	-0.31412235
172	0xbc89efa6	-0.016837906
173	0xbdcbb626	-0.099468514
174	0xbca28b41	-0.019841792
175	0x3e4a36bf	0.19747446
176	0xbea07e20	-0.31346226
177	0x3e17aae7	0.14811288
178	0x3d853251	0.06503738
179	0xbe579527	-0.21052991
180	0xbdc08979	-0.09401221
181	0xbf4f45d2	-0.8096591
182	0xbf0ac053	-0.54199713
183	0x3eb94c76	0.36191148
184	0xbfdcdcba	-1.725486
185	0x3d484453	0.048893284
186	0xbeab09a5	-0.33405796
187	0x3e90cdc3	0.28281984
188	0xbee5d9e5	-0.44892803
189	0x3d391f7f	0.045196053
190	0x3c62c53e	0.0138409715
191	0xbe9db2d3	-0.30800495
192	0xbe919e97	-0.28441307
193	0xbb9aae1a	-0.0047204616
194	0xbf3f3755	-0.74693805
195	0xbf556e16	-0.833711
196	0x3cde57ee	0.027141538
197	0xbf1e4077	-0.61817116
198	0xbe6d1201	-0.23151399
199	0xbe14cabe	-0.14530465
200	0xbeacb844	-0.33734334
201	0xbda0df44	-0.078550845
202	0xbf4374da	-0.76350176
203	0xbc06767a	-0.008206958
204	0xbd81221f	-0.06305336
205	0xbf0dc71c	-0.5538194
206	0xbe71da21	-0.23618366
207	0xbe926fac	-0.28600824
208	0xbfa303ec	-1.2735572
209	0x3d946633	0.072460555
210	0x3d1e817f	0.038697716
211	0x3cf964d7	0.030443592
212	0xbdf06523	-0.1173804
213	0xbf538537	-0.82625145
214	0xbe900d96	-0.28135365
215	0x3e120868	0.14261019
216	0xbeb4023a	-0.3515795
217	0xbdfc9a20	-0.123340845
218	0xbf6669d8	-0.90005255
219	0xbf21553c	-0.6302068
220	0xc10fceb7	-8.9879675
221	0xbe889387	-0.26675054
222	0xc07729d9	-3.8619292
223	0xbe75d331	-0.24006344
224	0xbf22af87	-0.63549083
225	0xc0a632fc	-5.1937237
226	0xc0a367e7	-5.1064334
227	0x3f913fa1	1.1347543
228	0xbea5b4b4	-0.32364428
229	0x3fc2c56a	1.5216496
230	0xbd06ae20	-0.032880902
231	0xbebd6447	-0.36990568
232	0xbe90f6a8	-0.28313184
233	0xbfb8e53f	-1.444496
234	0xbbfcb848	-0.0077123977
235	0x3f2c7bef	0.6737661
236	0xbe274cd5	-0.16337903
237	0xbe43fa73	-0.19138508
238	0xbf741b95	-0.95354587
239	0xc086af50	-4.2089005
240	0xbedc7ea7	-0.43065378
241	0xbf24e2cf	-0.6440858
242	0xbf0e7158	-0.556417
243	0xbd8b7a1d	-0.06810401
244	0xbe3fd510	-0.1873362
245	0xbf17072c	-0.5899532
246	0x3b16a2db	0.0022985253
247	0xbe8d1d88	-0.27561593
248	0xbefe7793	-0.49700603
249	0xbdbb3f06	-0.0914288
250	0x3e713f79	0.23559369
251	0xbe758783	-0.23977475
252	0xbd83fcd2	-0.06444706
253	0xbe475fae	-0.19470093
254	0xbe26798b	-0.16257302
255	0xbe7c0994	-0.24613029

bias f4 [20]
0	0xc12042fd	-10.016355
1	0x4005f81c	2.0932684
2	0xbf518d6a	-0.81856406
3	0x3f9e4b91	1.2366811
4	0x412c6b12	10.77614
5	0xbed980df	-0.42481133
6	0xbfa8282f	-1.3137263
7	0xbf773aa9	-0.96573883
8	0xbea97b1c	-0.33101737
9	0xbfd5343d	-1.6656567
10	0xbf145bc2	-0.5795251
11	0x40e92b3d	7.286528
12	0xbcf6f9f4	-0.030148484
13	0xbfae2d91	-1.3607656
14	0xbfbd8c11	-1.480837
15	0xbe499fab	-0.19689815
16	0xbc852b7a	-0.016256083
17	0x410298db	8.162318
18	0xc047d44c	-3.1223326
19	0xc074b1d8	-3.8233547

weight f4 [2, 20]
0	0xbda4260b	-0.080150686
1	0xbcf16d00	-0.02947092
2	0xbe528ffa	-0.20562735
3	0x3ef58205	0.4795076
4	0x3f13efcd	0.5778778
5	0xbdc54ac9	-0.09633405
6	0x3e0be192	0.13660267
7	0x3ed41e5e	0.41429418
8	0xbe03c9dd	-0.12869973
9	0xbda178d7	-0.078843765
10	0xbec3160e	-0.38102764
11	0x3edc3d1c	0.43015373
12	0xbdd868e5	-0.10566882
13	0x3e95c337	0.292505
14	0x3f0abca2	0.5419408
15	0x3da7650b	0.08173569
16	0xbd68b4d9	-0.056813095
17	0x3f6872c0	0.90800095
18	0x3e34d8bd	0.17660804
19	0xbd408d08	-0.047009498
20	0x3dc6bf71	0.09704483
21	0xbd8dc291	-0.06921876
22	0x3e4e1570	0.20125365
23	0xbeb25e7c	-0.3483771
24	0xbf248ce5	-0.6427749
25	0x3d909457	0.070595436
26	0xbe17938e	-0.14802381
27	0xbf2d3df0	-0.67672634
28	0x3d6d1316	0.05787953
29	0xbdfa7fb0	-0.12231386
30	0x3e5964bc	0.21229833
31	0xbee1171c	-0.43962944
32	0xbb7931b3	-0.0038024008
33	0xbf1ef902	-0.62098706
34	0xbe97a8ff	-0.2962112
35	0x3d40b0fe	0.047043793
36	0x3e36d22c	0.17853612
37	0xbf056aa8	-0.5211587
38	0xbe52f4cc	-0.20601195
39	0x3eb6fc92	0.3573957

bias f4 [2]
0	0xc03425fd	-2.8148186
1	0x402ada7b	2.669585
